Food_Greenix/tflite/new_model_beras.tflite (tflite, 10796 bytes, 4 tensors)

sequential/dense/BiasAdd/ReadVariableOp f4 [64]
0	0x3dbb6679	0.091504045
1	0xbdcdd74e	-0.10050832
2	0x3d7d6952	0.06186802
3	0xbdc82c05	-0.09774021
4	0x3dacdaa0	0.08440137
5	0xbdb82a25	-0.089924134
6	0x3db16894	0.08662525
7	0xbdd914ac	-0.10599646
8	0xbcfe9f05	-0.031081686
9	0x3dc27ddf	0.09496664
10	0xbd85a391	-0.065253384
11	0xbde72337	-0.112860136
12	0x3d679b03	0.056544315
13	0x3dc92e81	0.09823323
14	0x3d67162c	0.05641763
15	0x3c8776ca	0.016536135
16	0xbd5ff58d	-0.054677535
17	0xbd87427a	-0.06604476
18	0x3d98fd52	0.07470192
19	0xbdd296d7	-0.10282677
20	0xbd97c0df	-0.07409834
21	0xbd4c7460	-0.04991567
22	0x3e0e19e0	0.13877058
23	0x3d91d992	0.07121576
24	0xbdaf2822	-0.085525766
25	0x3d891fae	0.066954955
26	0xbd5196e2	-0.051169284
27	0x3dd3b967	0.10338097
28	0xbdcf333f	-0.10117196
29	0xbcc3128a	-0.023812551
30	0xbd99ace0	-0.075036764
31	0x3de8feb0	0.11376703
32	0x3cbb5bc2	0.022870902
33	0x3d0ef313	0.034899782
34	0x3c97818c	0.01849439
35	0xbd139e6c	-0.036039755
36	0xbd9a8a46	-0.07545905
37	0x3d167d82	0.036740787
38	0x3da17a94	0.07884708
39	0x3daa9fb5	0.08331243
40	0xbdc8a8e6	-0.0979784
41	0xbe043a82	-0.12912944
42	0xbd6f92c2	-0.05848957
43	0x3d82a4c1	0.063790806
44	0x3cdff928	0.027340487
45	0x3dd32122	0.10309054
46	0x3d975a7d	0.07390306
47	0x3d8c3092	0.068452016
48	0x3d6da125	0.058015008
49	0x3dbdcaed	0.09267221
50	0x3d913249	0.07089669
51	0xbda57448	-0.080788195
52	0x3ddc11b9	0.10745568
53	0x3de9c7a5	0.11415032
54	0x3d452488	0.048130542
55	0x3dbdcd77	0.09267705
56	0xbd6f023e	-0.058351748
57	0x3d046280	0.0323205
58	0x3da90066	0.08252029
59	0xbdb54495	-0.088509716
60	0xbdc975dd	-0.09836934
61	0xbda1c35c	-0.0789859
62	0x3d59e48d	0.05319648
63	0x3a5436cc	0.00080953236

sequential/dense/MatMul f4 [64, 2]
0	0x3dbb6f40	0.09152079
1	0x3e385b27	0.18003522
2	0x3e3d515a	0.18488064
3	0xbdb4c3c3	-0.08826401
4	0xbe17ee6c	-0.14837044
5	0x3eb3455d	0.35013857
6	0xbd3a4fa3	-0.045486104
7	0x3daa7f83	0.08325102
8	0x3c855b9c	0.016279034
9	0x3e574bab	0.21024959
10	0xbe025489	-0.1272756
11	0x3df96e47	0.12179237
12	0xbe86ace0	-0.26303768
13	0x3ceaccad	0.02866205
14	0x3df3597b	0.118823014
15	0xbdd306b9	-0.103040166
16	0x3e6d11e2	0.23151353
17	0xbde45681	-0.11149312
18	0x3e1d5d90	0.15367723
19	0xbe7d1d7d	-0.2471828
20	0x3d9da525	0.076975144
21	0x3d19537d	0.037433136
22	0x3ddfbd7c	0.10924813
23	0xbe9f4c2f	-0.3111281
24	0x3dfd2a7c	0.12361619
25	0x3dbe0a8f	0.09279358
26	0xbdc7237b	-0.09723564
27	0x3e3c93ad	0.18415709
28	0x3e626c7f	0.221117
29	0xbe569ab1	-0.20957448
30	0xbe093fad	-0.13403197
31	0x3c44debb	0.012015994
32	0xbe81b7ee	-0.2533564
33	0x3dcb6701	0.09931756
34	0xbe7bf681	-0.24605753
35	0x3e410220	0.18848467
36	0x3dcd65cd	0.100291826
37	0xbcdf8e83	-0.027289635
38	0x3e3ad307	0.18244563
39	0xbec0476e	-0.37554497
40	0xbe29565e	-0.16536853
41	0xbd3532f6	-0.044238053
42	0xbdae17e1	-0.08500648
43	0xbe72b1ed	-0.23700686
44	0xbe0da8a4	-0.13833863
45	0x3dcc2ad4	0.09969106
46	0x3d8b7019	0.0680849
47	0x3e989c6f	0.2980685
48	0xbdb77e4c	-0.08959636
49	0x3e7a5395	0.24445947
50	0xbd9bd04b	-0.07608088
51	0xbdf5ae37	-0.119961195
52	0xbe76c140	-0.24097157
53	0xbe68a062	-0.22717431
54	0xbce675f9	-0.028132426
55	0x3ebfdd63	0.37473592
56	0x3e203287	0.15644275
57	0x3b1f6bfd	0.002432584
58	0x3cf0b6ef	0.029384105
59	0xbd049f06	-0.03237822
60	0x3e1c6a2e	0.1527488
61	0x3d240aad	0.040049244
62	0x3e17ec9b	0.14836352
63	0xbe4af6f7	-0.19820772
64	0x3e4646c5	0.19362934
65	0x3c2f7730	0.010709569
66	0x3e50321b	0.20331614
67	0x3e2c7b16	0.16843829
68	0xbe67305b	-0.2257704
69	0x3e832566	0.2561447
70	0xbe59b429	-0.21260132
71	0xbe047776	-0.12936196
72	0xbd8f6ba2	-0.07002951
73	0x3ca71a80	0.020398378
74	0x3e3afc1a	0.18260232
75	0x3e065274	0.13117391
76	0x3e2753d9	0.16340579
77	0xbc6900aa	-0.01422135
78	0x3e459faa	0.19299188
79	0x3e710516	0.23537096
80	0x3d622130	0.05520743
81	0xbd7b4f7b	-0.061355095
82	0x3de0830c	0.10962495
83	0xbe3b0778	-0.18264568
84	0x3e6bbd04	0.23021322
85	0xbe26969f	-0.16268395
86	0x3e41a5ee	0.18910953
87	0x3d37f5c0	0.0449121
88	0xbd5cdf05	-0.053923625
89	0x3e03083f	0.12796114
90	0xbe0429c6	-0.1290656
91	0x3e32ae37	0.1744927
92	0x3e5b1264	0.21393734
93	0xbe11ab8e	-0.14225599
94	0xbdea2c47	-0.114342265
95	0x3c182626	0.009286439
96	0x3dbe3f7c	0.092894524
97	0x3df9a3c8	0.12189442
98	0xbda7bda2	-0.081904665
99	0x3ead608e	0.33862728
100	0x3caca236	0.021073442
101	0x3e841e2b	0.25804266
102	0xbe102ef3	-0.1408041
103	0xbe284d23	-0.16435675
104	0xbdc6ea83	-0.09712698
105	0xbda4dfbe	-0.08050488
106	0x3ceddf29	0.029037075
107	0x3ccf7c5c	0.025327854
108	0x3e4222a3	0.18958525
109	0x3c02b750	0.007978275
110	0x3c71dd6e	0.014762266
111	0x3e07c24a	0.13257709
112	0x3e2bdc9c	0.16783375
113	0xbebaf7fc	-0.36517322
114	0x3d8fae92	0.070157185
115	0x3d88c5b1	0.06678332
116	0x3e297964	0.16550213
117	0xbe7c2c76	-0.24626336
118	0xbe5108fc	-0.20413584
119	0x3e683aba	0.22678652
120	0x3df7f292	0.121068135
121	0x3de14f3b	0.1100144
122	0x3e1261e4	0.14295155
123	0xbd99d107	-0.07510572
124	0x3e55a66f	0.2086427
125	0xbe911b33	-0.28341064
126	0xbe43d263	-0.19123225
127	0xbc9f6748	-0.019458428

sequential/dense_1/MatMul f4 [32, 64]
0	0x3dc00d72	0.093775645
1	0x3e7edd2c	0.24889058
2	0x3e2a9cfa	0.16661444
3	0x3dd5eabf	0.10445165
4	0x3e15e466	0.14637908
5	0x3dc92096	0.098206684
6	0xbe52ab81	-0.20573236
7	0xbc818fe9	-0.015815692
8	0x3e01d746	0.12679777
9	0x3e479208	0.194893
10	0xba3af62d	-0.000713202
11	0xbe51e2a5	-0.20496614
12	0xbe585ab2	-0.21128348
13	0x3e494ceb	0.19658248
14	0x3d96d618	0.07365054
15	0x3e29eea3	0.16594939
16	0x3e19e24e	0.15027735
17	0x3e6ee710	0.23330331
18	0xbd9b6aee	-0.075887546
19	0xbe28a0d5	-0.16467603
20	0x3c0c0637	0.008546404
21	0x3e4941a1	0.19653942
22	0x3cf41c83	0.029798752
23	0x3d9e5c8e	0.07732497
24	0x3d9b4285	0.07581047
25	0xbdbc45fb	-0.09193035
26	0x3de835cb	0.11338385
27	0x3de8fe13	0.11376586
28	0xbe0fda95	-0.14048226
29	0xbcd26f15	-0.025687734
30	0x3e545dac	0.20738858
31	0xbd1b21e4	-0.037874117
32	0xbd9080f2	-0.07055844
33	0x3cef0415	0.029176751
34	0x3d566c57	0.052349415
35	0xbd3d676d	-0.046241213
36	0xbd466ab1	-0.048441593
37	0xbe34e010	-0.17663598
38	0x3ccc79d5	0.024960438
39	0x3e74f32c	0.23920888
40	0xbe273402	-0.16328433
41	0xbe41394d	-0.18869515
42	0xbd6db8b8	-0.05803749
43	0x3dc3cb3b	0.095602475
44	0x3ceef6ea	0.029170472
45	0x3e1e0a99	0.1543373
46	0x3caf048e	0.021364477
47	0xbe042740	-0.12905598
48	0xbd28fba1	-0.041255597
49	0xbdbbcbed	-0.09169755
50	0xbd4c9131	-0.049943153
51	0xbdaaa29a	-0.08331795
52	0xbd0924f3	-0.033482503
53	0x3cb74ae6	0.022374582
54	0x3da913d8	0.08255738
55	0x3e14f027	0.14544736
56	0xbe79ec1f	-0.2440648
57	0xbe38c3c8	-0.18043435
58	0x3d2e04d9	0.04248509
59	0x3d8ec54a	0.06971224
60	0xbd37b67a	-0.044851758
61	0x3e393f75	0.18090613
62	0x3dad29ca	0.08455236
63	0x3cddd5e8	0.027079538
64	0xbe40c2d9	-0.18824328
65	0x3e1f0e28	0.15532744
66	0x3e0bcdea	0.13652769
67	0xbe94b78f	-0.29046294
68	0x3e309553	0.17244463
69	0x3d5e7b0c	0.054316565
70	0x3e69aa9d	0.2281899
71	0x3dacb3d5	0.08432738
72	0xbb728b2e	-0.0037009227
73	0x3e0e8659	0.13918437
74	0xbe453b58	-0.19260919
75	0xbe6481bd	-0.22315116
76	0xbe629ec0	-0.22130871
77	0x3e820a4d	0.25398484
78	0xbe07e305	-0.13270195
79	0xbdb4872b	-0.08814844
80	0xbe60ace4	-0.21940953
81	0xbd4c5d6d	-0.049893785
82	0xbe440029	-0.19140686
83	0xbe48e526	-0.19618663
84	0xb99d1118	-0.0002995811
85	0x3d83879c	0.0642235
86	0x3ddd12d1	0.107946046
87	0x3d1e9dd1	0.038724724
88	0x3b2fb5ef	0.0026811322
89	0xbdc8ea3a	-0.098103
90	0x3e185247	0.14875136
91	0xbdeef3bb	-0.11667582
92	0xbe0fe9bf	-0.14054011
93	0xbd8daeec	-0.06918129
94	0xbe2795c3	-0.16365723
95	0x3e8e1c17	0.27755806
96	0xbdbd4253	-0.09241166
97	0xbe65cee8	-0.2244221
98	0xbe7a8c69	-0.24467625
99	0xbdbe0487	-0.09278207
100	0x3dd2f269	0.10300142
101	0xbe0471c7	-0.12934028
102	0x3ddb06c6	0.10694651
103	0xbc1f93a9	-0.009739795
104	0x3dbc33e7	0.09189587
105	0xbe0ab877	-0.1354693
106	0x3e834501	0.25638583
107	0xbe5f1ad5	-0.2178758
108	0x3c1e96ef	0.00967954
109	0x3daae32f	0.08344113
110	0x3e47823f	0.19483279
111	0xbdea8c21	-0.11452509
112	0x3e646049	0.22302355
113	0xbd74ca1b	-0.059763055
114	0xbc1d1c99	-0.009589338
115	0xbe650769	-0.22366108
116	0xbe163063	-0.14666896
117	0x3e763670	0.24044204
118	0x3cdc07a5	0.026859114
119	0x3d97e067	0.07415848
120	0xbe608018	-0.21923864
121	0xbe2d44c6	-0.16920766
122	0x3ce79983	0.028271442
123	0xbcd33637	-0.025782688
124	0xbe5ac709	-0.21364988
125	0xbe44d9a9	-0.19223656
126	0x3e3d2c4d	0.1847393
127	0x3d17c51b	0.03705321
128	0xbddff214	-0.109348446
129	0xbc966e72	-0.018363211
130	0xbe8abf9c	-0.2709931
131	0x3e56cd3d	0.2097673
132	0xbdfa5130	-0.122225165
133	0xbe42e71c	-0.19033474
134	0xbdb69f17	-0.08917063
135	0x3e8ee486	0.27908725
136	0x3e02a97e	0.12759969
137	0x3bf46fda	0.007459623
138	0xbdf68141	-0.12036372
139	0x3e87d6d3	0.26531085
140	0xbdce4e86	-0.10073571
141	0xbeb99611	-0.36247304
142	0x3e1db565	0.15401228
143	0xbe90212c	-0.28150308
144	0xbd11a9fb	-0.035562497
145	0x3e1f7db2	0.15575293
146	0xbcda6970	-0.026661605
147	0xbcb39fb1	-0.021926733
148	0xbc9c774e	-0.019099858
149	0xbe07bb13	-0.13254957
150	0x3d393abb	0.045222025
151	0xbe238386	-0.15968141
152	0x3e1e7f96	0.15478358
153	0xbdb3305d	-0.08749459
154	0xbe57b956	-0.21066794
155	0xbdeb4c56	-0.11489169
156	0xbd93cdb9	-0.07216973
157	0x3d27b263	0.040941607
158	0x3e6c9179	0.23102368
159	0x3e5f0253	0.2177823
160	0x3e126593	0.1429656
161	0x3dccfee1	0.10009552
162	0x3e59d522	0.2127271
163	0x3d6ccc17	0.057811823
164	0xbe1872bc	-0.14887518
165	0xbdd2165a	-0.102581695
166	0x3d705fbc	0.05868505
167	0xbe54e9e3	-0.20792346
168	0xbe5e7c33	-0.21727066
169	0x3e9823af	0.29714724
170	0xbe3d51a7	-0.18488179
171	0xbe17df89	-0.14831366
172	0x3dc644c0	0.09681082
173	0xbc09fcba	-0.008422071
174	0x3dba1138	0.090853155
175	0xbd9c518d	-0.07632742
176	0xbe284e7e	-0.16436192
177	0xbe4aee00	-0.19817352
178	0xbdf92ad4	-0.12166372
179	0x3e3d5515	0.18489487
180	0xbe51ca87	-0.20487414
181	0xbe8011a0	-0.25013447
182	0xbe26777d	-0.16256519
183	0x3e123b4b	0.14280431
184	0x3e075bf8	0.13218677
185	0x3cc11feb	0.02357479
186	0x3e143640	0.1447382
187	0x3e0309b4	0.1279667
188	0xbdfbe2a9	-0.12299091
189	0x3e1d33a8	0.15351737
190	0x3dbba3d9	0.09162111
191	0x3e3d678a	0.18496528
192	0xbe2d52d4	-0.16926128
193	0x3cc4d171	0.02402565
194	0xbda33718	-0.07969493
195	0x3e3dc737	0.18533026
196	0x3e4bd60e	0.19905874
197	0xbe161e6d	-0.14660044
198	0x3e15e34f	0.14637493
199	0x3e4423dd	0.19154306
200	0xbdfaaaf5	-0.12239639
201	0xb91b5e18	-0.00014817005
202	0xbe0ae91a	-0.13565484
203	0x3eac3547	0.33634397
204	0xbe68454c	-0.22682685
205	0xbead09be	-0.33796495
206	0x3e2d6ec5	0.16936786
207	0x3c382180	0.011238456
208	0x3d81087f	0.063004486
209	0xbcbc73a1	-0.023004355
210	0xbdd56cf8	-0.10421175
211	0x3e8d404b	0.27588114
212	0xbd8ac71a	-0.06776257
213	0xbd78a5b2	-0.060704894
214	0xbdc33350	-0.095312715
215	0xbde66197	-0.112490825
216	0x3d6f91ee	0.05848878
217	0x3db92890	0.0904094
218	0xbe477186	-0.194769
219	0xbe66bdf9	-0.22533406
220	0x3ddf52c2	0.10904457
221	0xbe05744c	-0.13032645
222	0xbe3d7a22	-0.18503621
223	0x3dd27771	0.10276688
224	0x3e449607	0.19197856
225	0xbd6dd73c	-0.05806659
226	0x3b5d2fb6	0.0033750362
227	0xbd6dd4f2	-0.05806441
228	0x3e3ba832	0.1832588
229	0xbdce3f3f	-0.10070657
230	0xbdf716a0	-0.12064862
231	0x3e676daf	0.22600435
232	0x3e71e860	0.236238
233	0x3db4f07c	0.08834931
234	0xbe2fc36e	-0.17164394
235	0x3df67811	0.120346196
236	0xbe871996	-0.26386708
237	0xbc77bb8c	-0.015120398
238	0xbe0a212b	-0.13489215
239	0x3dd5f2c2	0.10446693
240	0xbe56da35	-0.20981677
241	0xbe4538f6	-0.1926001
242	0xbd99378b	-0.07481297
243	0x3ce145c3	0.027499085
244	0xbc96f5d7	-0.018427772
245	0x3e46467d	0.19362827
246	0xbcc2084f	-0.023685602
247	0xbe2e4287	-0.17017566
248	0x3e063476	0.1310595
249	0x3e67b2f8	0.22626865
250	0xbe1b82d9	-0.15186633
251	0x3ca3eaa7	0.020009352
252	0x3e0555a2	0.13020948
253	0x3e3f92ac	0.18708295
254	0x3e1c76fc	0.15279764
255	0xba92f110	-0.0011210758

sequential/dense_2/MatMul f4 [1, 32]
0	0x3e1eb0d4	0.15497142
1	0x3e37d971	0.17954041
2	0xbe9b77b3	-0.3036476
3	0xbe9e8ff8	-0.30969214
4	0x3ecde819	0.4021614
5	0x3ed1466b	0.40874037
6	0xbe243087	-0.16034137
7	0x3dbf1df1	0.09331883
8	0x3de3e2ca	0.11127241
9	0x3ecbe4a1	0.39822868
10	0x3dbc15ba	0.091838315
11	0xbdf971bd	-0.12179897
12	0x3eaedbf2	0.3415218
13	0x3cb62fc0	0.022239566
14	0x3ed6149a	0.41812593
15	0xbda43344	-0.08017591
16	0x3dde72f6	0.10861771
17	0x3e864c66	0.26230162
18	0x3d865b13	0.0656034
19	0x3ea78f6b	0.32726607
20	0x3d840f1a	0.06448193
21	0xbeb261c2	-0.34840208
22	0xbeb12d05	-0.3460466
23	0x3eb8241a	0.35965043
24	0x3df4e5b0	0.11957872
25	0x3e8d5377	0.2760274
26	0x3da34b2c	0.07973322
27	0x3c9282a1	0.017884554
28	0x3e23c51b	0.15993159
29	0x3db4ad73	0.08822145
30	0xbda3d537	-0.07999652
31	0xbea7755f	-0.32706735
