Food_Greenix/tflite/new_model_daging.tflite (tflite, 10848 bytes, 4 tensors)

sequential_4/dense_12/BiasAdd/ReadVariableOp f4 [64]
000000 c2 91 c9 3c 62 c7 41 bd 6a a7 91 3a a1 3e 1d 3c
       0.024605636 -0.047309287 0.0011112515 0.009597451
000010 20 16 45 bc 8a c4 48 3b 7a da 3d bd 73 94 b1 3c
       -0.012029201 0.0030634725 -0.046350934 0.021677231
000020 c1 ea 9d bb 77 51 3d bc 06 bf fb 3c 7e 65 b0 3c
       -0.0048192446 -0.011555067 0.030730736 0.02153277
000030 70 6b 8b 3b 4c 3f c6 3c ff 97 11 3c b3 1d da 3c
       0.004254751 0.024200104 0.008886336 0.02662549
000040 1c b4 9c bc c6 1c 68 bd 3f b5 a8 bc b7 34 e4 3c
       -0.019128852 -0.056668065 -0.020594237 0.027857168
000050 c6 4a e2 bb 91 d0 37 bc 19 f1 0b bc 03 2d 84 3d
       -0.0069058863 -0.01121916 -0.008541369 0.06453898
000060 70 a7 e9 3c d9 83 05 bd 86 46 ef 3b b4 f5 5a 3a
       0.028522223 -0.032596443 0.007302108 0.00083526527
000070 28 fa 88 3c 2b 15 97 bc ba 70 4d bc ff 9e f5 3c
       0.016720846 -0.01844271 -0.012539083 0.029983042
000080 d2 71 45 3d 66 80 b2 bc b5 08 20 3d f6 9f 55 bd
       0.04820425 -0.02178974 0.039070804 -0.052154504
000090 e4 eb eb 3c 45 63 40 3c 39 e7 15 3c 0e 83 cf 3c
       0.028799005 0.011742418 0.009149366 0.025331046
0000a0 e8 0e d2 bc d4 34 40 bd 48 7e 0a 3d c1 df eb 3a
       -0.025641873 -0.04692538 0.033811837 0.0017995761
0000b0 a1 9f cc 3b 55 ee b3 3a c3 86 89 bd 0d f6 07 3d
       0.006244615 0.0013727645 -0.06715157 0.033193637
0000c0 d6 4e 0d ba 8a 6d 77 bd 1f 5c ea 3c 1e 9e 55 ba
       -0.00053904706 -0.0604072 0.02860838 -0.00081488665
0000d0 24 0f d0 bc e6 ef 3c bc 28 02 1f 3c b8 84 f1 3c
       -0.025397845 -0.011531806 0.009705104 0.02948223
0000e0 ed da ae 3c 79 d9 f6 3c 79 ee 9b 3c 5a ef 9e ba
       0.021344626 0.030132996 0.019034611 -0.0012125776
0000f0 f3 cb 3e 3d a5 4c e0 3b e3 43 b9 bb 19 62 e7 bc
       0.04658122 0.0068450742 -0.0056538447 -0.028245019

sequential_4/dense_12/MatMul f4 [64, 2]
000000 26 67 83 be 96 9d 9d 3c 57 13 cc 3d 41 a5 84 be
       -0.25664634 0.019240182 0.09964626 -0.2590733
000010 83 dc cf bd 2d 11 8f be 50 ee db 3c 2a bf 5a be
       -0.10149481 -0.27942792 0.026847035 -0.21361986
000020 08 69 2b 3e d2 ca c1 3e 67 bb ab 3d c6 a8 81 3e
       0.16739285 0.37850052 0.083853535 0.25324076
000030 ea 31 b1 3d 1f 76 cd be f4 8f 1e 3e d9 21 9f bc
       0.086520985 -0.40129182 0.15484601 -0.01942532
000040 d7 a6 2e bd 9d 57 55 bd 38 10 06 3e 43 30 de 3d
       -0.04263958 -0.052085508 0.13092124 0.10849049
000050 2a c9 c3 bd 66 0f 72 3e 2e f6 cb bd f1 de 56 3e
       -0.095598534 0.23638687 -0.099590644 0.20983483
000060 1b f2 3d bd 2b b2 f1 be dc 38 0f be 81 cc aa be
       -0.046373468 -0.47206244 -0.13986534 -0.3335915
000070 fb 0f 16 bd 4d d8 03 3f 27 43 b1 bc d9 d4 ed 3e
       -0.036636334 0.51501924 -0.021638466 0.46451452
000080 0d 4c e0 3d 0f 8a ce be 9d fb 5a 3e e2 ce 92 bd
       0.109520055 -0.40339705 0.21385045 -0.07168366
000090 c0 ee c8 3c 6c 51 d7 be da 36 78 be 81 9a f0 be
       0.024527907 -0.42054307 -0.24239674 -0.46992877
0000a0 01 a6 99 bd b6 22 21 be ba 49 2c 3e f7 43 01 3e
       -0.07502366 -0.15735897 0.16825 0.12623583
0000b0 54 17 6b bc 14 ec 60 be 2a cf 19 be 47 07 b8 be
       -0.014348824 -0.21965057 -0.15020433 -0.35943052
0000c0 95 4a f0 bc f0 5e b9 be c2 c3 36 3e dd b5 d8 3e
       -0.029332438 -0.36205244 0.17848113 0.4232625
0000d0 93 18 1d be 62 1f ed be 13 20 22 bd 6c d8 98 3e
       -0.15341406 -0.46313006 -0.03958137 0.29852617
0000e0 2d 8c 8a bd f4 86 ca 3e bf 45 9d 3d 4c 1a 14 be
       -0.06765018 0.39556086 0.07679319 -0.14463156
0000f0 1f 4f dd 3d ea c9 d1 3e 0c ca 80 bd 8b 73 fe 3e
       0.10806107 0.4097436 -0.062885374 0.49697527
000100 34 2b b4 bd 36 2c 97 3e 4f cd 80 3e 32 dd 98 3b
       -0.08797303 0.29525918 0.25156638 0.0046650404
000110 01 b6 2e be f9 2b fb 3e cf 1a dc 3d 59 46 bd be
       -0.17061616 0.49056986 0.10747301 -0.36967734
000120 61 5e 64 bd c0 74 ea be 2f 8e e4 bd 47 1f 89 3e
       -0.05575407 -0.45792198 -0.11159932 0.26781675
000130 17 03 8f bd 5e d0 63 3e 35 4f 76 be 3d dd 8f be
       -0.06983011 0.22247455 -0.24053653 -0.2809848
000140 66 25 25 3d ec 70 43 3e a0 fe b9 3d a9 13 b6 be
       0.04031887 0.19086045 0.09081769 -0.35561875
000150 ad 05 46 be be e6 c4 be 94 54 7b 3d fe 21 4b 3e
       -0.19338103 -0.38457292 0.061359957 0.19837186
000160 72 50 2a 3e 6c 6b 8c 3e d5 cc 0e 3e bb 6c a3 bd
       0.1663225 0.27425706 0.13945325 -0.07979723
000170 e7 a4 47 3e d6 31 bc be 04 8c ad bd bf 37 02 3e
       0.19496499 -0.36756772 -0.084739715 0.12716578
000180 08 cb f4 3d 57 ee 1c be 33 74 38 3e 4c 3d e2 be
       0.11952788 -0.15325294 0.18013076 -0.4418739
000190 41 04 52 be aa 5e 37 3e 95 9c 01 3c f9 a9 fd be
       -0.20509435 0.17907205 0.007910867 -0.4954374
0001a0 0e c1 8a 3d a6 47 f0 be e4 03 82 3e ec 91 4d 3e
       0.067751035 -0.46929663 0.25393593 0.20075196
0001b0 3e e5 03 3d 83 7e 80 3e 89 a9 43 be 6e 50 f7 3e
       0.032201044 0.2509652 -0.19107641 0.4830355
0001c0 19 7e 5f be 5b b2 fa be 65 7d a2 bd ef 9e 66 3e
       -0.21825446 -0.489642 -0.07934073 0.22521566
0001d0 72 79 83 be 56 cd c7 3e 8a 9b 16 be 68 76 90 be
       -0.25678593 0.39023846 -0.14707771 -0.28215337
0001e0 66 a7 7a be 80 ed d2 3e 06 02 11 be c8 2e 9b bd
       -0.2447792 0.41196823 -0.14160928 -0.07577282
0001f0 35 02 82 bd 24 ad a9 be ed 93 4b 3e 34 b4 dd 3e
       -0.06348077 -0.33139908 0.19880648 0.43301547

sequential_4/dense_13/MatMul f4 [32, 64]
000000 d0 f6 ef 3d 75 6d 53 be e5 c8 7d bd 94 47 cd 3d
       0.117169976 -0.20647223 -0.061959166 0.10023418
000010 4c 7b ec bd 8a 05 b2 bd 3b c6 b7 be 7e 3d 20 be
       -0.115469545 -0.08692463 -0.35893425 -0.15648457
000020 cd 91 e1 3d de 90 fd 3d 3b 33 8b 3c fe bc a5 3e
       0.110141374 0.12381147 0.016992202 0.32370752
000030 19 a2 e5 bd 70 97 ca bd ec a7 5b 3e 9d 81 28 3e
       -0.11212558 -0.09892166 0.21450776 0.16455694
000040 2b 0c d4 bc 3c b0 a5 bd 2f 84 73 be 85 e2 c9 bd
       -0.025884708 -0.08090255 -0.23780893 -0.09857658
000050 79 db 43 3e 66 a9 e7 3d 82 6c a9 be ce 9d 6e be
       0.19126691 0.11311607 -0.33090597 -0.23302385
000060 23 d5 e0 bd e5 4b 23 3e cf bd 80 be ec a8 e1 3d
       -0.109781526 0.1594692 -0.25144812 0.110185474
000070 a0 ef 94 3d 70 bb 32 3e df ab 5a 3e 09 d1 68 3e
       0.07272267 0.17454314 0.21354626 0.2273599
000080 f2 63 8b 3e 6c 5a 78 3c b0 e8 e0 3c 6c cd f3 3c
       0.2722469 0.015158277 0.027454704 0.029761039
000090 c9 b9 74 be 70 f8 36 be fc 99 96 3d 02 28 65 be
       -0.23898996 -0.17868209 0.07353589 -0.22378543
0000a0 87 1a d7 bd d5 7b 81 be d7 68 9b 3d 77 69 f5 bd
       -0.105031066 -0.2528979 0.07588356 -0.119830064
0000b0 d1 a0 fa bd a4 95 8f be c7 11 be 3d 3b 7e 92 3e
       -0.122377045 -0.28043854 0.092807345 0.2861193
0000c0 de a5 87 bd f3 7f 20 bd fd 58 1e 3e b2 9d b8 be
       -0.066234335 -0.039184522 0.15463634 -0.36057812
0000d0 c0 d6 2b be dc 19 30 3e 39 73 b4 bd 7c db 10 bd
       -0.1678114 0.17197365 -0.088110395 -0.035365567
0000e0 1c 26 35 be e9 64 26 3e f3 25 59 3d 9e f6 b7 3d
       -0.17690319 0.16249432 0.053014707 0.08982585
0000f0 1f e7 e9 3d 5e 66 39 3d 39 10 94 be a4 58 e8 3d
       0.11421036 0.04526364 -0.28918627 0.11345032
000100 08 f7 52 be 8e 9e a3 3d 99 6c e1 bd 30 4f 58 bd
       -0.20602047 0.07989226 -0.110070415 -0.052809894
000110 3b 54 2a 3e ee 5f 3c 3e 1a aa dc bd 68 4c 0d 3e
       0.16633694 0.1839597 -0.10774632 0.13798678
000120 da cc 28 3e 88 88 25 be 1b 72 84 3e f4 ee 86 3e
       0.16484395 -0.16165364 0.25868306 0.26354182
000130 9d 44 a1 bc 6f 78 38 be 33 70 64 3d d1 94 b7 3e
       -0.019686038 -0.18014692 0.055771064 0.35855725
000140 7c e4 bd 3d 83 bb d3 3c fc 22 00 be 59 74 f5 bc
       0.092720956 0.025846248 -0.12513345 -0.029962705
000150 01 df 50 3e cf 38 3c be 7b d7 8c bd 18 91 ee 3d
       0.20397569 -0.18381046 -0.06877037 0.11648768
000160 dd d8 42 3d 4b 7f ca bd d7 72 6e be 82 a8 92 3e
       0.0475701 -0.098875605 -0.23285995 0.28644186
000170 0c d5 39 3e ec 1d 81 bd c8 89 24 be c8 10 bf 3e
       0.18147677 -0.06304535 -0.16068184 0.3731749
000180 76 42 0e 3d 8e e8 d7 ba 80 82 82 3e 3e cf 3f be
       0.03473135 -0.0016472505 0.2549019 -0.187314
000190 5e b1 a8 be 17 62 56 bd 76 7f 89 3b a6 eb e1 38
       -0.3294782 -0.05233964 0.0041961027 0.00010772729
0001a0 ac 26 ed 3d 01 d5 90 be c7 68 00 3d 6d 95 7f 3e
       0.11579642 -0.2828751 0.031349923 0.24959345
0001b0 0c d2 7a 3d a0 e7 87 bd e2 a0 05 3e 95 ed 69 3e
       0.061235473 -0.06635976 0.13049653 0.22844537
0001c0 c2 e9 a1 bc e9 5a 26 be 3c 65 1a bd 6d 44 c3 be
       -0.019764785 -0.16245617 -0.0376942 -0.38138142
0001d0 e9 eb cc bd a2 64 16 3e 4f d4 19 3e 8d 61 41 ba
       -0.10005934 0.14686826 0.15022396 -0.0007376902
0001e0 b2 97 88 be 7d 72 15 be f8 70 db 3d 7f c3 97 be
       -0.26678234 -0.14594455 0.107149065 -0.2964134
0001f0 d9 58 a0 3d 0e 14 87 3e 2a 58 32 bc d8 ea 44 3e
       0.07829446 0.26382488 -0.010885278 0.19230211
000200 44 19 9d 3d ba 5f a8 3a 5a 93 92 3d d2 f9 4d be
       0.07670835 0.0012845912 0.07157011 -0.2011483
000210 71 83 9d 3d e1 65 13 3e b9 58 15 be 78 5e 75 be
       0.07691086 0.14394332 -0.14584626 -0.23961818
000220 73 05 a5 3d 8f 01 ed 3d 63 ac 52 3e ca 3a 8d 3e
       0.0805768 0.11572563 0.20573573 0.27583915
000230 b4 40 61 be 88 92 3b bd 91 b7 d1 3e 0a 8b 83 3e
       -0.21997339 -0.04579404 0.40960363 0.25692016
000240 bc 21 61 bc 00 42 9e 3d 09 1a 99 be e1 83 44 3e
       -0.013740953 0.07727432 -0.29902676 0.19190933
000250 c7 d3 fe bc 0b 98 cb 3d 9d 5f 28 3e 86 fe 81 be
       -0.031106843 0.09941109 0.16442724 -0.25389498
000260 ac fe 7f be 2a da 20 be be c0 92 be 74 b9 32 3e
       -0.24999493 -0.15708223 -0.28662676 0.17453557
000270 53 cd c3 3c 75 6d 60 bc 80 f3 88 3e fc 36 4c bd
       0.023901617 -0.013697972 0.26748276 -0.049857125
000280 b5 4e 5d bd 86 8e 29 3e b4 a6 23 3e de 9d ba bd
       -0.05403014 0.16558275 0.15981561 -0.09112142
000290 46 b2 83 be 12 bd 5e 3d f8 3e 91 3e bc db 3d be
       -0.2572195 0.05437953 0.28368354 -0.18540853
0002a0 70 ec a4 3d 68 7f f0 bd d1 50 b2 bd 2a 7a 40 3e
       0.080529094 -0.11743051 -0.08706821 0.18796602
0002b0 e0 a2 f6 bd 7c a4 41 be 61 ce 97 3d 40 16 95 bc
       -0.12042785 -0.18910402 0.074124105 -0.018199086
0002c0 f0 9d fd 3d 19 0c a2 3d ba 31 eb 3d 9c 9c c5 be
       0.1238364 0.07912464 0.11484094 -0.38596046
0002d0 4f f5 d0 be 07 38 0c 3e e8 eb 75 3e 9b c7 17 3e
       -0.40812156 0.13693248 0.24015772 0.14822237
0002e0 15 5b b5 bd 82 b1 85 3e f7 2b 5a bc b9 92 10 bc
       -0.08855263 0.2611199 -0.013316146 -0.008824044
0002f0 34 64 c0 3d d2 54 5b be 5c 33 aa bd 89 c2 5b be
       0.09394112 -0.21419075 -0.08310577 -0.21460928
000300 46 23 25 bd 91 9e b3 bd 40 79 47 3e 96 4b 10 3e
       -0.040316842 -0.087704785 0.19479847 0.14091334
000310 1b e3 09 3e 05 aa 0c bc 4a 80 cd 3d 09 1b bb 3b
       0.1346554 -0.008585458 0.10034235 0.00571001
000320 3f a7 ce bd b9 f9 18 3e 46 60 0e be 94 6e 0b be
       -0.100904934 0.14939012 -0.13903913 -0.13616401
000330 4b 4e 89 be fe 10 cf bd d3 5b 20 3e 76 aa 17 3e
       -0.26817545 -0.10110663 0.15660028 0.1481112
000340 df eb 1b 3e d5 da 35 3e 7d bc 6c be 6f 99 4e be
       0.15226696 0.17759259 -0.23118778 -0.20175718
000350 d7 66 32 be a4 ea 6c 3e b0 fb 84 be a5 93 c7 3d
       -0.17422043 0.23136383 -0.25973272 0.09744958
000360 60 4f bb bd dd 1d dd 3c 76 9e 63 3d fe d6 a4 3d
       -0.09145999 0.026991779 0.055571042 0.08048819
000370 a4 21 b5 bd 0e ba 81 3d 30 c9 ef 3d 0d 40 b1 3e
       -0.08844307 0.06334315 0.11708295 0.3461918
000380 57 c0 85 3e 41 c2 b0 bd 22 e3 9c 3d 4e 02 33 bb
       0.26123306 -0.08630801 0.0766051 -0.0027314606
000390 e3 0a ea bd 30 3c 74 bd 2f 57 fa 3d b5 f3 4f 3e
       -0.11427858 -0.05962771 0.1222366 0.2030781
0003a0 2f 31 37 be b3 5c 53 be 36 c1 f1 3d c4 d3 d5 3d
       -0.17889856 -0.2064083 0.1180443 0.10440782
0003b0 0c 39 bd bd 3e d5 20 3e ce 76 1e 3d 23 52 4b be
       -0.092393965 0.15706345 0.03868752 -0.19855551
0003c0 b2 6c af 3d 2b d1 9b bd 2f 2b 9f bd 78 70 2f bd
       0.08565654 -0.07608255 -0.077719085 -0.042831868
0003d0 4e 36 31 be 5f fe 01 3e 32 b9 91 3e 59 1d 2d 3e
       -0.17305872 0.12694691 0.28461605 0.16905726
0003e0 82 dd cb bd d0 1a f6 bc 84 52 82 3d 8d 90 25 3e
       -0.09954359 -0.030042082 0.06363395 0.16168423
0003f0 a1 98 bc bd 1f a2 dc 3d 90 9f ff 3c 61 80 21 bc
       -0.09208799 0.1077311 0.031204015 -0.009857268

sequential_4/dense_14/MatMul f4 [1, 32]
000000 3f a0 8f 3d 1c de c5 3e 74 8a da 3e 56 c7 d5 3e
       0.070129864 0.38646019 0.42683756 0.41753644
000010 24 9d 0f 3f 95 2b 08 3f e7 b3 28 bc 44 a3 ae 3d
       0.5609915 0.531915 -0.010296798 0.08527234
000020 42 04 23 be 76 fe e8 be 26 d6 eb 3e 86 76 96 be
       -0.15919593 -0.45506638 0.4606182 -0.293873
000030 a8 ff ad 3d 7c df 11 bf ee 58 67 be bc 83 7a be
       0.08496028 -0.56981635 -0.22592518 -0.24464315
000040 16 7f 89 be e4 63 04 3f 7c 4f 55 3e 49 02 6c 3e
       -0.2685477 0.5171492 0.20831102 0.23047747
000050 bb 1e 84 be 02 f5 b0 3e ff cb d9 be e3 69 94 be
       -0.25804695 0.34561926 -0.4253845 -0.28987035
000060 1f 5b 09 bf 80 05 f6 be 45 b0 3e 3d af 10 1c be
       -0.53654665 -0.4805107 0.046554822 -0.1524074
000070 b5 8a e3 be 89 16 cd 3e 6a bc b8 be 11 82 83 3e
       -0.44441763 0.40056255 -0.3608125 0.2568517
