Food_Greenix/tflite/new_model_singkong.tflite (tflite, 10824 bytes, 4 tensors)

sequential_1/dense_3/BiasAdd/ReadVariableOp f4 [64]
0	0xbc6a5043	-0.014301362
1	0xbb56d282	-0.003277928
2	0xbced9f6a	-0.029006679
3	0x3cec0c49	0.028814452
4	0xbd2af49a	-0.041737176
5	0x3b3c8b50	0.002876956
6	0xbce4c97c	-0.027928106
7	0xbc8fc121	-0.017548146
8	0xbd9a3e10	-0.07531369
9	0x3d58286f	0.052772935
10	0xbcc5cef4	-0.024146535
11	0x3ceacd27	0.028662277
12	0x3ce0e436	0.02745257
13	0xbd03bc4a	-0.03216199
14	0xbc84786d	-0.016170705
15	0x3c85df0c	0.016341709
16	0xbd6a1a73	-0.05715413
17	0x3d4fd0cd	0.050736237
18	0xbd32bb2c	-0.043635532
19	0xb8da192c	-0.00010399739
20	0xbd23e07d	-0.04000901
21	0x3d0cacd4	0.03434451
22	0x3cd0d1af	0.02549061
23	0x3bd7fb6b	0.0065912507
24	0x3d228bf4	0.03968425
25	0xbd3b4220	-0.04571736
26	0x3c6677d1	0.014066652
27	0x3b45bddc	0.003017298
28	0xbcddf164	-0.027092643
29	0x3da2cb69	0.07948954
30	0x3ca96564	0.02067823
31	0xbc10c7ac	-0.008836668
32	0xbb50b6d2	-0.003184725
33	0x3cedd999	0.029034423
34	0x3da19182	0.078890815
35	0x3bbd34f6	0.0057741357
36	0x3c2aff58	0.010436855
37	0x3d5f69a1	0.054544095
38	0xbc8f5ce9	-0.017500358
39	0x3d2c1213	0.042009424
40	0xbc0fb56e	-0.008771284
41	0x3ca79580	0.02045703
42	0xba633400	-0.00086671114
43	0xbbf355c0	-0.0074259937
44	0x3bbfb41e	0.005850329
45	0x3d3a7cca	0.045529164
46	0xbc87138d	-0.016488815
47	0xbd1c2b4b	-0.038127225
48	0xbb0e3f72	-0.0021705297
49	0xbd37c31a	-0.044863798
50	0x3c226c40	0.009913504
51	0x3cace9b5	0.021107534
52	0x3ceff69d	0.029292399
53	0x3cd84877	0.026401741
54	0xbc860aab	-0.016362509
55	0xbcd97df5	-0.026549319
56	0x3c57d291	0.013172762
57	0x3d1ece59	0.038771007
58	0x3bc5d1db	0.0060369796
59	0xbccf0d58	-0.025274917
60	0x3cbc1c8f	0.022962837
61	0xbc98878b	-0.01861932
62	0xbbf6b6f7	-0.0075291353
63	0xbcc455f5	-0.023966769

sequential_1/dense_3/MatMul f4 [64, 2]
0	0x3e44cae1	0.19218017
1	0xbdcd2600	-0.100170135
2	0x3e015145	0.12628658
3	0xbe85720e	-0.2606358
4	0x3e89c426	0.26907462
5	0xbea08e12	-0.3135839
6	0xbe885264	-0.2662536
7	0x3d296420	0.041355252
8	0x3e713d1a	0.23558465
9	0xbe671879	-0.2256793
10	0x3e65d88a	0.22445884
11	0xbd5c9197	-0.053849783
12	0x3e225ae6	0.15854988
13	0xbe221215	-0.1582721
14	0xbe9a063d	-0.30082884
15	0x3d9d44eb	0.07679161
16	0x3d4a6cdd	0.049420226
17	0x3d7e899d	0.062142957
18	0xbe80851c	-0.25101554
19	0xbe60f08b	-0.2196676
20	0x3e3a7507	0.18208705
21	0xbe96f5d5	-0.2948443
22	0x3dbe38b7	0.09288161
23	0xbdcd51c4	-0.10025361
24	0xbc19ef5f	-0.009395449
25	0xbe39146c	-0.18074197
26	0x3e25923d	0.16169067
27	0x3ea3411b	0.3188561
28	0xbd2d5aed	-0.04232304
29	0xbd184dd0	-0.037183583
30	0xbd8f5dac	-0.07000288
31	0xbe022432	-0.1270912
32	0x3e6da41d	0.23207135
33	0x3d009ed0	0.031401455
34	0xbd6cd664	-0.057821646
35	0xbe861614	-0.2618872
36	0x3e83f0d7	0.25769684
37	0xbe1860e8	-0.14880717
38	0xbe1a1f90	-0.15051103
39	0xbcc8fee0	-0.024535596
40	0x3e3967eb	0.18106048
41	0xbe7be6c4	-0.24599749
42	0xbe364960	-0.17801428
43	0x3e66c323	0.22535376
44	0xbddabd0f	-0.10680591
45	0xbe289339	-0.16462411
46	0xbe285203	-0.16437535
47	0x3e69e9f1	0.22843148
48	0xbe7cfa32	-0.24704817
49	0x3e5c5f8f	0.21520828
50	0x3d0e7b47	0.034785535
51	0x3df56549	0.11982209
52	0xbd1e9d25	-0.038724083
53	0xbdcaedfc	-0.09908673
54	0xbe8d65d8	-0.27616763
55	0xbd135f81	-0.03597975
56	0x3e0660da	0.13122883
57	0xbe5a038d	-0.21290417
58	0xbe12aa4f	-0.1432278
59	0xbe4b458a	-0.19850746
60	0xbe338aec	-0.17533463
61	0x3c586c94	0.013209481
62	0xbd0ea867	-0.03482857
63	0x3e617896	0.22018656
64	0x3b4acd3a	0.0030945078
65	0x3d76d77f	0.060264107
66	0xbe7073d4	-0.23481685
67	0xbe93aa35	-0.28840795
68	0xbe3d821c	-0.18506664
69	0xbdd7b123	-0.10531833
70	0x3b65a9a6	0.0035043745
71	0xbd8f7fd5	-0.07006804
72	0xbe6dd341	-0.23225118
73	0xbe610151	-0.21973158
74	0xbe3debc6	-0.18546972
75	0x3eb458b1	0.35223916
76	0x3e2f603e	0.17126557
77	0xbe6c119d	-0.23053594
78	0xbe5fbf70	-0.21850371
79	0xbd8b0826	-0.067886636
80	0xbdc77263	-0.097386144
81	0x3c421442	0.01184565
82	0xbe89b048	-0.26892304
83	0x3e91ed28	0.28501248
84	0xbd9408f5	-0.07228271
85	0xbe4c6a35	-0.1996239
86	0x3e10c0a1	0.14135982
87	0x3c6b2b79	0.014353626
88	0xbe2cf2d1	-0.16889502
89	0x3e514f9d	0.20440526
90	0xbe546856	-0.20742926
91	0x3e2d4067	0.16919099
92	0x3ddec501	0.10877419
93	0x3d9357d2	0.07194485
94	0x3e2d6468	0.16932833
95	0xbea85cfd	-0.32883444
96	0xbe054f66	-0.1301857
97	0x3e899ecb	0.26878962
98	0x3e3fff1b	0.18749659
99	0xbe20b004	-0.15692145
100	0xbe08d384	-0.13361937
101	0xbeb00b94	-0.34383833
102	0xbcfe611b	-0.031052163
103	0x3ea6cf85	0.325802
104	0xbe652aad	-0.22379561
105	0x3d8aa1b9	0.067691274
106	0xbdb090a0	-0.08621335
107	0x3dd2890f	0.10280048
108	0xb997182c	-0.00028818974
109	0xbcabf6b0	-0.020991653
110	0x3ca2d929	0.01987894
111	0x3e8a7875	0.27045026
112	0xbc16617c	-0.0091785155
113	0x3dc9115b	0.098177634
114	0xbe84b091	-0.2591596
115	0x3e95d14e	0.2926125
116	0xbac7e85e	-0.0015251746
117	0xbe8ca174	-0.2746693
118	0x3e2dc95f	0.16971348
119	0x3e8b38e5	0.27191845
120	0xbe473c86	-0.19456682
121	0xbe80e803	-0.2517701
122	0x3dc1c699	0.094617076
123	0xbebf9299	-0.37416533
124	0x3d7fd278	0.062456578
125	0x3e3fa1d7	0.18714081
126	0x3e3bee8b	0.18352716
127	0x39d28d9a	0.00040159823

sequential_1/dense_4/MatMul f4 [32, 64]
0	0xbe540f03	-0.20708852
1	0xbe087087	-0.13324176
2	0xbe030ef0	-0.12798667
3	0x3e41618f	0.18884872
4	0x3d8d1d0a	0.068903044
5	0x3e44f6ed	0.1923482
6	0x3e205b34	0.15659791
7	0xbe0bf777	-0.13668619
8	0xbddf046c	-0.10889515
9	0x3db1e7b9	0.08686776
10	0x3e823853	0.25433597
11	0x3e114361	0.1418586
12	0x3e282bce	0.1642296
13	0xbe4e05e6	-0.20119438
14	0xbe22cc9a	-0.15898362
15	0xbe2966bf	-0.16543101
16	0x3d9e726a	0.077366665
17	0xbd4bc9f7	-0.049753156
18	0x3e3d5cba	0.18492404
19	0xbde57bfd	-0.112052895
20	0xbe860d8e	-0.26182216
21	0x3dd13f45	0.10217146
22	0xbe2c9c0c	-0.16856402
23	0xbdfbbc40	-0.12291765
24	0x3e7880b0	0.2426784
25	0xbafd29b2	-0.0019314794
26	0xbe3a9cf1	-0.18223931
27	0xbca0e6d7	-0.019641323
28	0x3c7ef44b	0.015561174
29	0xbdc8cfca	-0.098052576
30	0x3d806243	0.06268742
31	0xbe098fc0	-0.13433743
32	0x3d50e3f6	0.05099865
33	0x3e23e33b	0.1600465
34	0x3e54b78e	0.20773146
35	0xbe16873e	-0.14700028
36	0x3e2f37ff	0.17111205
37	0xbdaa1831	-0.083053954
38	0x3e3db184	0.18524748
39	0xbe4da522	-0.20082524
40	0xbd64ddbf	-0.055875536
41	0xbda7f3cf	-0.082008
42	0x3c947475	0.018121937
43	0xbdc5be6b	-0.0965546
44	0xbe6aeb56	-0.22941336
45	0xbe4c63c7	-0.19959937
46	0x3e35763f	0.17720889
47	0xbcf6ce9d	-0.030127818
48	0x3e5a1c59	0.21299876
49	0x3e8485ae	0.2588324
50	0x3e09cdb5	0.13457377
51	0xbe4858be	-0.19565102
52	0xbd493523	-0.04912294
53	0x3dcc7ecb	0.09985121
54	0x3e7e422f	0.24829935
55	0xbdb9358f	-0.090434186
56	0xbde22dba	-0.11043878
57	0x3e585a86	0.21128282
58	0x3e81976b	0.25310835
59	0xbe3fb407	-0.18721019
60	0x3e37c30c	0.17945498
61	0xbe387359	-0.18012752
62	0xbe101ccb	-0.14073484
63	0x3d3a8fce	0.0455473
64	0xbcbb684e	-0.022876885
65	0xbe0c3a56	-0.13694128
66	0x3cb83c61	0.022489728
67	0xbe33c750	-0.175565
68	0xbc653312	-0.013989227
69	0xbd278d45	-0.04090621
70	0x3d0668a2	0.03281463
71	0x3b9cb383	0.0047821417
72	0xbd376071	-0.044769708
73	0xbe12f525	-0.14351328
74	0xbcf28653	-0.029605066
75	0x3d35e3a2	0.04440654
76	0x3b8c87d4	0.004288653
77	0x3d042ca1	0.032269124
78	0x3e4e9126	0.20172557
79	0xbd57dc3e	-0.052700274
80	0x3e61be7e	0.22045323
81	0xbe636431	-0.22206189
82	0xbe5f285a	-0.21792737
83	0xbcb7d8d1	-0.022442253
84	0xbe1eabc3	-0.1549521
85	0xbd01537a	-0.03157375
86	0x3c0f2439	0.0087366635
87	0x3e45b192	0.19306019
88	0xbd82839e	-0.0637276
89	0xbd9865b6	-0.07441275
90	0xbd3e742b	-0.046497505
91	0x3d804c84	0.06264594
92	0xbd58e830	-0.052955806
93	0x3e215c84	0.15757948
94	0xbdf64250	-0.12024367
95	0x3d5d0524	0.05395998
96	0xbdafa607	-0.08576589
97	0x3e0769be	0.13223931
98	0xbe68b39a	-0.22724763
99	0xbe9537b0	-0.2914405
100	0xbe4b1719	-0.1983303
101	0xbc53c691	-0.01292576
102	0x3c85bdd0	0.016325861
103	0xbe5d3c72	-0.2160509
104	0x3e5c8175	0.21533759
105	0x3da090f9	0.07840151
106	0x3e3e8639	0.1860589
107	0x3e457934	0.19284517
108	0x3e5ed634	0.217614
109	0xbe2b8368	-0.16749346
110	0x3cb67333	0.022271728
111	0xbe7a16c6	-0.2442275
112	0x3d8cbb9a	0.0687172
113	0xbd4cae3a	-0.049970843
114	0xbdb2eaed	-0.08736215
115	0xbe2851b9	-0.16437425
116	0xbdd9a841	-0.10627795
117	0x3e0cf202	0.13764194
118	0x3e508c26	0.20365962
119	0xbd4ff0d9	-0.0507668
120	0xbe626a07	-0.22110759
121	0x3ddd7e4f	0.10815107
122	0xbe779693	-0.24178533
123	0x3dea83d1	0.11450923
124	0x3e03b359	0.12861384
125	0x3ca42016	0.020034831
126	0x3d6af19e	0.05735933
127	0xbe3cf9be	-0.18454644
128	0x3d26c056	0.04071077
129	0x3dffafaf	0.12484681
130	0xbdffe6ac	-0.12495169
131	0xbe3553d1	-0.17707755
132	0x3d04ea47	0.032449987
133	0x3e1c7b06	0.15281305
134	0x3dfb1f6d	0.12261853
135	0x3dda677e	0.10664271
136	0x3c0514a6	0.008122599
137	0xbe646a67	-0.22306214
138	0xbe233a34	-0.15940171
139	0xbd99c255	-0.07507769
140	0xbe229fc1	-0.15881254
141	0x3e1d31be	0.15351006
142	0xbe2c3044	-0.16815287
143	0xbad6982d	-0.0016372256
144	0x3d9b81f0	0.07593143
145	0xbd83c68f	-0.064343564
146	0xbe0781c1	-0.13233091
147	0x3ddd39b3	0.10802021
148	0x3e0b0840	0.13577366
149	0x3e4a75cc	0.19771498
150	0xbd248d34	-0.040173724
151	0xbcf3d9dc	-0.02976697
152	0xbdfcfe53	-0.12353196
153	0xbd276f56	-0.040877663
154	0x3e3fcec3	0.18731217
155	0xbe55b650	-0.20870328
156	0xbddf2e83	-0.10897543
157	0xbd8b5824	-0.06803921
158	0x3e418089	0.18896689
159	0x3e891f42	0.2678166
160	0xbe1d548b	-0.15364282
161	0x3e520361	0.20509101
162	0xbd669a60	-0.056299567
163	0xbe748557	-0.2387899
164	0x3e547127	0.20746289
165	0x3e89757a	0.2684744
166	0xbce752ce	-0.028237727
167	0x3d887d27	0.06664496
168	0x3d9feaca	0.07808454
169	0xbd65b946	-0.056084894
170	0x3cf0f53e	0.029413816
171	0xbe34ac46	-0.17643842
172	0x3de9be31	0.11413229
173	0x3e304b6b	0.1721627
174	0xbda72fe3	-0.081634305
175	0x3de46719	0.11152477
176	0xbdc86990	-0.097857594
177	0x3d007c42	0.0313685
178	0xbd86af9d	-0.06576464
179	0x3e127c14	0.14305145
180	0xbe2b0c93	-0.16704015
181	0xbd3d0ac0	-0.04615283
182	0xbdc33a84	-0.09532645
183	0xbd783530	-0.0605976
184	0x3df33e9b	0.118771754
185	0xbe3b9b56	-0.18320975
186	0xbe694b6a	-0.22782674
187	0x3e180091	0.14843966
188	0xbca1a60b	-0.019732496
189	0xbd89c206	-0.0672646
190	0xbe7a22ed	-0.24427386
191	0x3e297d65	0.1655174
192	0x3d94ac74	0.07259455
193	0x3e634b36	0.2219666
194	0xbe6d09d4	-0.2314828
195	0xbdd5a8d2	-0.104325905
196	0x3bae7336	0.005323793
197	0x3d71157f	0.05885839
198	0x3e3a824a	0.18213764
199	0xbbd75f67	-0.006572652
200	0x3cdd8e56	0.02704541
201	0xbe563cc7	-0.20921622
202	0x3e17a9ed	0.14810915
203	0x3dc1d01c	0.09463522
204	0xbe3d14d9	-0.18464984
205	0xbe4925e2	-0.19643357
206	0xbe27e8aa	-0.16397348
207	0xbd0da0f7	-0.034577336
208	0x3ca041f7	0.019562704
209	0x3a6334ec	0.0008667249
210	0x3e3304e9	0.17482342
211	0xbce9fb75	-0.028562287
212	0xbe89a9a3	-0.26887235
213	0x3c967703	0.018367296
214	0xbc033759	-0.008008801
215	0x3de8db3a	0.11369939
216	0x3e5f1fdc	0.21789497
217	0x3dbb6eae	0.0915197
218	0x3d96638c	0.07343206
219	0x3e1010d7	0.14068924
220	0x3de01fa5	0.10943536
221	0x3be5b19a	0.007009697
222	0xbd11929d	-0.035540212
223	0xbc5d1d71	-0.013495789
224	0xbe9580e9	-0.29199913
225	0x3d4e8e66	0.05042877
226	0xbe5b1e2f	-0.21398233
227	0xbe3c7558	-0.18404138
228	0xbde627ab	-0.11238035
229	0xbcaa395e	-0.020779308
230	0x3e380e81	0.17974283
231	0xbe4c9945	-0.19980343
232	0x3e7fd800	0.24984741
233	0x3db25c40	0.087090015
234	0xbdcb453b	-0.09925314
235	0xbe76b636	-0.24092945
236	0x3d191d5f	0.037381526
237	0xbde1352f	-0.10996472
238	0xbdfe0b90	-0.12404549
239	0x3d2ade67	0.041716006
240	0xbd81f82f	-0.063461654
241	0xbe685a14	-0.22690612
242	0x3df9f7ee	0.12205492
243	0xbe501a9b	-0.20322649
244	0x3d0d394e	0.034478478
245	0xbe5480b4	-0.20752221
246	0x3e25e812	0.16201809
247	0xbe0108e4	-0.12601048
248	0xbe156b27	-0.14591657
249	0xbe251ebe	-0.16125008
250	0xbd9e49a8	-0.077288926
251	0xbe34dd8f	-0.17662643
252	0xbdf7a1a3	-0.12091377
253	0x3e134a2f	0.14383768
254	0xbe7b732c	-0.24555653
255	0xbd352bc9	-0.04423121

sequential_1/dense_5/MatMul f4 [1, 32]
0	0xbe18c05f	-0.14917134
1	0x3ea10b23	0.3145381
2	0x3ea3d543	0.31998643
3	0xbe7afea2	-0.24511197
4	0x3e4f35ee	0.20235416
5	0xbea040e3	-0.31299505
6	0x3ca315c4	0.01990784
7	0x3e3d5e06	0.18492898
8	0x3e82c75b	0.2554272
9	0xbd15d841	-0.03658319
10	0x3e8f2e26	0.27964896
11	0xbe8a2911	-0.26984456
12	0x3e8461be	0.2585582
13	0xbda31da5	-0.079646386
14	0xbe84fb73	-0.2597309
15	0xbe75c29d	-0.2400002
16	0xbe163c14	-0.14671355
17	0x3eb5e2a9	0.3552449
18	0xbeb31748	-0.349787
19	0xbe9be511	-0.304482
20	0x3df7064e	0.120617494
21	0xbe9fe49d	-0.31229106
22	0x3ebeb1e9	0.3724511
23	0x3eb25594	0.34830916
24	0xbd7e6fa0	-0.062118173
25	0x3e42a566	0.19008407
26	0x3daf5d91	0.08562768
27	0xbe5a7129	-0.2133223
28	0xbe60e334	-0.21961671
29	0x3e4c1e94	0.1993354
30	0x3e949d4f	0.29026267
31	0x3eb57050	0.3543725
