Food_Greenix/tflite/new_model_kacang.tflite (tflite, 10836 bytes, 4 tensors)

sequential_3/dense_9/BiasAdd/ReadVariableOp f4 [64]
0	0x3c1e2027	0.00965122
1	0xbcdd04c2	-0.026979808
2	0x3d137e57	0.03600916
3	0x3d4fc517	0.05072507
4	0x3d289d0a	0.04116539
5	0xbd023cd9	-0.03179631
6	0xbc23f57f	-0.010007261
7	0x3d15c8bd	0.036568392
8	0x3cc436fc	0.023952
9	0x3c146a99	0.009058618
10	0xbbaae92b	-0.005215784
11	0x3d093fc0	0.033508062
12	0x3d3bc71b	0.04584418
13	0x3c32f5a7	0.010922826
14	0xbd14a34d	-0.03628855
15	0x3d4b2a2d	0.04960077
16	0xbc71e977	-0.014765135
17	0xbb5c2388	-0.0033590514
18	0xbc831145	-0.015999446
19	0xbcf1fca8	-0.029539421
20	0xbcc5191d	-0.024059827
21	0x3c89eaae	0.016835537
22	0xbd82487d	-0.06361482
23	0xbcca896a	-0.024723727
24	0xbd0cc5af	-0.034368213
25	0x3d5c244f	0.053745564
26	0xbccfe12b	-0.025375923
27	0x3c8c6e39	0.017142402
28	0xbb468491	-0.0030291418
29	0xbc7cc547	-0.015427894
30	0xbcb07dee	-0.021544423
31	0x3c84721f	0.016167698
32	0xbd47143b	-0.048603278
33	0x3d449f5e	0.048003547
34	0xbc9dfc49	-0.019285338
35	0x3d463da6	0.048398636
36	0x3d81872b	0.06324609
37	0xbd5871de	-0.052842967
38	0x3cb2c749	0.021823542
39	0x3d164225	0.036684174
40	0x3d771327	0.060321
41	0xbc558ae6	-0.013033604
42	0x3c6d415c	0.014480915
43	0x3d814ab4	0.063130766
44	0x3c9734e7	0.018457843
45	0xbccf8eff	-0.02533674
46	0x3cae432f	0.02127227
47	0xbd2d8024	-0.042358533
48	0xbd4acfbd	-0.04951452
49	0x3d42bab9	0.047541354
50	0x3c02362e	0.007947488
51	0x3be70862	0.00705056
52	0x3b99dbdb	0.0046953983
53	0x3a7c686d	0.0009628598
54	0xbbc28e97	-0.005937408
55	0xbd486e5c	-0.048933372
56	0x3c1908aa	0.009340445
57	0x3cdb849d	0.026796633
58	0x3b4f5c10	0.0031640567
59	0xbd008d38	-0.031384677
60	0x3bb2a47c	0.005451737
61	0xbd2c8d62	-0.04212702
62	0x3cdaf828	0.026729658
63	0x3c7dbd5b	0.01548704

sequential_3/dense_9/MatMul f4 [64, 2]
0	0xbd0ce232	-0.034395404
1	0xbe7ab457	-0.24482857
2	0x3e13c621	0.14431049
3	0xbe6a023d	-0.22852416
4	0xbd8fd42d	-0.07022891
5	0xbd86b5d8	-0.06577653
6	0xbe49eec7	-0.19719993
7	0xbe304cb3	-0.17216758
8	0xbe31c9e4	-0.17362171
9	0xbe5cd305	-0.21564873
10	0x3e800ee2	0.25011355
11	0x3e9acbd6	0.3023364
12	0x3c39603b	0.011314447
13	0xbeaf9738	-0.34295058
14	0xbe803a4a	-0.2504447
15	0xbdd4704b	-0.10372981
16	0xbe1e378f	-0.15450881
17	0xbaf9ab50	-0.0019048247
18	0xbdd0899a	-0.101824954
19	0xbe52a256	-0.20569739
20	0xbd4e5295	-0.050371725
21	0x3d99c225	0.07507733
22	0xbde6e7f0	-0.11274707
23	0xbd5f1edf	-0.0544728
24	0xbe094038	-0.13403404
25	0x3e404ac9	0.18778528
26	0xbd3e4b8d	-0.04645877
27	0xbe851e8b	-0.25999865
28	0x3e6e6073	0.2327898
29	0xbe21903f	-0.15777682
30	0xbdaa5bb9	-0.08318276
31	0x3ea526db	0.32256207
32	0x3dbdf59e	0.092753634
33	0x3e500fdb	0.20318548
34	0xbaad6582	-0.0013229104
35	0x3e95d292	0.29262215
36	0x3cfe4142	0.031036977
37	0xbe031cc7	-0.12803946
38	0xba7c7640	-0.0009630658
39	0xbe273323	-0.16328101
40	0xbe23b565	-0.15987165
41	0x3e52f697	0.20601879
42	0xbe4a4e45	-0.1975642
43	0x3ddef4ab	0.108865105
44	0x3e0c230e	0.13685247
45	0x3eb23d90	0.34812593
46	0x3e62c4c7	0.22145377
47	0xbe8f53e3	-0.27993688
48	0x3e715214	0.23566467
49	0x3d48945b	0.048969608
50	0xbd8b5f76	-0.06805317
51	0xbe57d5a6	-0.21077594
52	0x3e2a3808	0.16622937
53	0x3b9e9c2e	0.0048403954
54	0xbd9fec70	-0.07808769
55	0x3e904894	0.28180373
56	0xbc08f70c	-0.008359682
57	0xbe615a04	-0.22006994
58	0x3d9d4fbe	0.07681225
59	0x3ddbcddd	0.10732625
60	0x3c3fe078	0.011711232
61	0x3e296a6b	0.16544501
62	0xbe4fd9dc	-0.2029795
63	0x39dd824d	0.00042249486
64	0x3e358aa3	0.17728667
65	0x3ea14cf2	0.31504017
66	0xbe434eae	-0.19072983
67	0xbae44220	-0.0017414726
68	0x3c8c04e1	0.01709217
69	0xbe4a9103	-0.1978188
70	0xbdf5c092	-0.119996205
71	0x3df51d04	0.11968425
72	0xbe5943d7	-0.21217285
73	0xbda5c63f	-0.08094453
74	0x3e522661	0.20522453
75	0xbdce2390	-0.10065377
76	0xbde490bb	-0.11160418
77	0xbe46c8c6	-0.19412526
78	0xbd089fa7	-0.03335538
79	0xbe3f397d	-0.18674274
80	0xbe129c76	-0.14317498
81	0xbe84ca9c	-0.2593583
82	0x3e56cb01	0.20975877
83	0xbe5245cd	-0.2053444
84	0xbe0bac2a	-0.13639894
85	0xbe7ae6d0	-0.2450211
86	0xbe5e74bc	-0.21724218
87	0x3e90c69a	0.2827652
88	0xbe1595f8	-0.1460799
89	0xbe2edff5	-0.1707762
90	0x3e1e4955	0.15457661
91	0x3e8fe8ad	0.28107205
92	0xbd75d7a5	-0.060020108
93	0x3e5a129a	0.21296158
94	0x3e13a416	0.14418063
95	0xbec17c25	-0.37790027
96	0x3e4a10a9	0.19732918
97	0xbe8109d8	-0.25202823
98	0xbe12fd6c	-0.14354485
99	0x3d779700	0.06044674
100	0xbc2f01d5	-0.010681589
101	0x3e658de7	0.22417413
102	0xbd7b64f2	-0.061375566
103	0xbd5318a0	-0.051537156
104	0x3de63e71	0.112423785
105	0x3ea096ab	0.3136495
106	0xbe046df5	-0.1293257
107	0xbde2b246	-0.11069159
108	0x3dc3c50d	0.09559069
109	0xbd1904d4	-0.03735812
110	0x3e2b121b	0.16706125
111	0xbdf615cf	-0.120158784
112	0xbe3825e7	-0.17983209
113	0x3daac662	0.0833862
114	0xbe0bee29	-0.1366507
115	0xbe6dacc2	-0.23210433
116	0xbc0d2eef	-0.008617147
117	0x3e8b6f61	0.27233413
118	0x3dc1a118	0.09454554
119	0x3ea5e829	0.32403687
120	0xbac20687	-0.0014802971
121	0x3ec557b4	0.38543475
122	0x3e74198d	0.23837872
123	0x3ea4a10b	0.32154116
124	0xbdc881fd	-0.09790418
125	0xbeabcca3	-0.33554563
126	0xbd98d17e	-0.074618325
127	0xbe689032	-0.22711256

sequential_3/dense_10/MatMul f4 [32, 64]
0	0xbe38cda0	-0.1804719
1	0x3d56d833	0.052452277
2	0xbe2fec4e	-0.17179987
3	0xbe4e42db	-0.20142691
4	0xbe6611cf	-0.22467731
5	0x3dae724d	0.08517895
6	0xbdd4e110	-0.1039449
7	0xbe08776c	-0.13326806
8	0xbd0f75da	-0.0350245
9	0x3d77203b	0.06033347
10	0xbe1bd1ee	-0.152168
11	0xb9fbf691	-0.00048058157
12	0x3d49e131	0.049287025
13	0xbe15f894	-0.14645606
14	0x3e4357d0	0.19076467
15	0x3e1e3323	0.15449195
16	0x3bbea6f2	0.0058182413
17	0x3e4fa7c4	0.20278841
18	0x3c3007e6	0.010744071
19	0xbe9cad90	-0.30601168
20	0xbd93aea7	-0.07211047
21	0xbd502f0f	-0.05082613
22	0xbe3e079f	-0.18557595
23	0xbdcd8f3b	-0.10037085
24	0xbdd8fc4c	-0.10594997
25	0x3e4bf399	0.19917144
26	0x3e3d8694	0.18508369
27	0xbe2aa0ee	-0.16662952
28	0xbd640683	-0.055670273
29	0x3e48980f	0.19589256
30	0x3dcab0a2	0.09896971
31	0xbe296a7d	-0.16544528
32	0xbd3b6819	-0.045753572
33	0x3d0a41cc	0.033754155
34	0x3e243f2c	0.16039723
35	0xbd9a4826	-0.075332925
36	0x3db5a567	0.088694386
37	0xbd01db99	-0.031703565
38	0x3e4ff605	0.20308693
39	0xbe0970f5	-0.13421996
40	0x3db5f149	0.08883912
41	0xbe048ec7	-0.1294509
42	0x3d221bff	0.03957748
43	0xbdf8a418	-0.121406734
44	0x3e0030c7	0.12518607
45	0x3a6d7d9b	0.0009059549
46	0x3e29b2ed	0.16572161
47	0xbe8b8a28	-0.27253842
48	0xbe0d14e5	-0.13777502
49	0x3dd1e60c	0.10248956
50	0x3d30407b	0.043030243
51	0xbe06ada6	-0.13152179
52	0x3e7ce790	0.24697709
53	0x3e59c283	0.21265607
54	0xbde8495e	-0.11342119
55	0xbe0c0d2a	-0.13676897
56	0x3e37ee77	0.17962061
57	0xbdf22185	-0.118227996
58	0x3e60cabd	0.21952339
59	0x3e48567b	0.1956424
60	0x3e07bd6a	0.1325585
61	0xbdb57183	-0.08859541
62	0x3e559c2f	0.2086036
63	0x3dddde03	0.10833361
64	0x3da34a56	0.07973163
65	0xbd1b1590	-0.03786236
66	0x3dd2f1b3	0.10300007
67	0xbd371f0d	-0.044707347
68	0x3e234ccc	0.15947264
69	0xbe410655	-0.18850072
70	0x3e34275c	0.1759314
71	0xbe521b92	-0.2051833
72	0x3cebeb84	0.028798826
73	0x3cb0c55d	0.021578485
74	0x3e3f9018	0.18707311
75	0x3dc3ed2a	0.0956672
76	0x3b375539	0.002797438
77	0x3deee815	0.1166536
78	0x3d89d63d	0.06730316
79	0xbe0d5a8e	-0.13804075
80	0x3e6c4b88	0.23075688
81	0xbe71cb96	-0.23612818
82	0xbe4aa8fd	-0.19791026
83	0xbe2cb48b	-0.16865747
84	0xbe403c74	-0.18773061
85	0xbe09130d	-0.13386174
86	0xbcaf2d79	-0.021383988
87	0x3e85606d	0.2605013
88	0x3e5eb730	0.21749568
89	0x3da8d1c1	0.082431324
90	0xbdce7d69	-0.10082514
91	0x3d23d666	0.03999939
92	0x3c8a283e	0.016864892
93	0xbd94c914	-0.07264915
94	0xbde12353	-0.10993066
95	0x3cfd2114	0.030899562
96	0xbe75ac6c	-0.23991555
97	0xbe5d73d0	-0.2162621
98	0x3e451d54	0.19249469
99	0x3db571ad	0.088595726
100	0x3e54d7f5	0.20785506
101	0x3d6a161a	0.057149984
102	0xbe576d7a	-0.21037856
103	0x3e6f5fc2	0.23376372
104	0x3e6e0e1b	0.23247568
105	0x3dfb5ad9	0.12273187
106	0xbe2552a3	-0.16144805
107	0x3d7d7c1c	0.061885938
108	0xbc06445e	-0.008195011
109	0x3e64b25e	0.22333667
110	0xbe0c50e2	-0.1370273
111	0x3e759259	0.23981608
112	0xbd358d96	-0.04432448
113	0x3dfba2b3	0.12286892
114	0xbe821ef4	-0.2541424
115	0xbe41eacf	-0.18937229
116	0xbc6d6d4e	-0.014491392
117	0x3d8b0b30	0.06789243
118	0x3e019131	0.12653042
119	0xbe4a0afa	-0.1973075
120	0x3db55c46	0.088554904
121	0x3e2de448	0.16981614
122	0x3e296746	0.16543302
123	0xbe6fcf42	-0.23418906
124	0xbdf610f8	-0.12014955
125	0xbe339aa5	-0.17539461
126	0x3e68c9b5	0.22733195
127	0xbe3c91c4	-0.1841498
128	0x3e0ec495	0.13942178
129	0xbd34059e	-0.04395067
130	0x3e4f7c0c	0.20262164
131	0xbe1173e3	-0.14204364
132	0x3d2ddc32	0.042446323
133	0x3c987888	0.018612161
134	0x3e328ca1	0.17436458
135	0xbdfaaa36	-0.122394964
136	0x3cfa0cdf	0.030523716
137	0x3d912179	0.070864625
138	0xbe3f6876	-0.18692192
139	0xbe1565b3	-0.14589576
140	0xbe30effa	-0.17279044
141	0x3d6a13a2	0.05714763
142	0x3d6bdf6e	0.057586126
143	0xbe13a3df	-0.1441798
144	0x3d97da55	0.074146904
145	0xbdd58f2e	-0.104277
146	0xbd04f1f8	-0.032457322
147	0x3e627262	0.22113946
148	0xbd39abce	-0.04532986
149	0xbd155de3	-0.03646649
150	0xbe01f6d2	-0.1269181
151	0x3d265880	0.040611744
152	0xbc5738d8	-0.013136111
153	0xbdbb0f0c	-0.09133729
154	0x3e0a0d32	0.13481596
155	0x3bf50904	0.0074778814
156	0xbdab6cf7	-0.08370393
157	0xbc35cbda	-0.011095965
158	0x3ba4f5c7	0.0050341818
159	0x3e49c6c7	0.19704734
160	0x3e450098	0.19238508
161	0xbde5ef2f	-0.11227261
162	0x3dc35e60	0.09539485
163	0xbe38d7d4	-0.18051082
164	0xbd4dd157	-0.05024847
165	0x3e5283c9	0.20558085
166	0x3b968d3f	0.0045944746
167	0xbe1397af	-0.14413331
168	0xbe28c7bd	-0.16482444
169	0xbd2b4551	-0.041814152
170	0x3c645c9a	0.013938094
171	0xbe20aebf	-0.1569166
172	0x3dc04150	0.09387457
173	0xbdda8b14	-0.10671058
174	0x3df0de05	0.11761097
175	0x3de4c5ac	0.111705154
176	0x3dbe097c	0.09279153
177	0x3e8b8bf0	0.272552
178	0xbe57072e	-0.20998833
179	0xbd2b3272	-0.041796155
180	0xbe8aa1e6	-0.27076644
181	0x3d279600	0.040914536
182	0xbe8a961e	-0.27067655
183	0x3df72c72	0.12069024
184	0xbe0458db	-0.1292452
185	0x3e54dfef	0.20788549
186	0xbdc11cb8	-0.09429306
187	0x3d3fa0c6	0.046784185
188	0xbd8c0a86	-0.06837945
189	0x3e416689	0.1888677
190	0x3e842623	0.25810346
191	0xbdae4971	-0.085101016
192	0xbc51b793	-0.012800115
193	0xbe5ffe07	-0.21874247
194	0x3e5a7d9c	0.21336979
195	0x3e675865	0.22592314
196	0x3df610e5	0.12014941
197	0x3d8a887e	0.06764315
198	0xbe8aa007	-0.27075216
199	0xbdf51a6d	-0.11967931
200	0xbe01979a	-0.12655488
201	0x3e0e5ad7	0.1390184
202	0xbd7d6ddb	-0.061872344
203	0xbe44bad5	-0.19211896
204	0xbe08461f	-0.13307999
205	0xbc46b1e4	-0.012127373
206	0xbe1cee32	-0.1532524
207	0x3e2d67a0	0.16934061
208	0xbd8acc36	-0.067772314
209	0x3e50a7d5	0.20376523
210	0x3dedcf2d	0.11611781
211	0xbd98405e	-0.07434152
212	0xbe0ce928	-0.13760817
213	0x3e0f1ad5	0.1397508
214	0x3dc0ed5b	0.09420272
215	0xbe1a4b12	-0.150677
216	0x3e4f2ef6	0.20232758
217	0xbe8ff488	-0.2811625
218	0x3dcff5da	0.10154314
219	0x3e274462	0.1633468
220	0xbe041a8c	-0.12900752
221	0xbd4fa825	-0.050697464
222	0xbe078022	-0.13232473
223	0xbccba2f6	-0.02485798
224	0x3e802645	0.25029197
225	0x3e3efbfe	0.18650815
226	0xbe836d6d	-0.25669423
227	0x3e128506	0.14308557
228	0xbe4b0c1b	-0.19828837
229	0x3e230b13	0.15922193
230	0xbe288e7f	-0.16460608
231	0xbd9684d5	-0.073495544
232	0x3e0cb4e9	0.13740887
233	0x3e12c451	0.14332701
234	0x3e35b08c	0.17743129
235	0x3e300fe4	0.17193562
236	0x3b701a49	0.003663676
237	0xbe1f27c8	-0.15542519
238	0x3e86da7b	0.26338562
239	0x3d6feeba	0.058577277
240	0x3d7f4dc4	0.062330022
241	0x3e27194d	0.16318245
242	0xbbb79af2	-0.0056031877
243	0xbe3bcdf7	-0.18340288
244	0xbdeccccd	-0.115625
245	0x3dfbb667	0.1229065
246	0xbde9945d	-0.11405251
247	0x3d5b3e52	0.05352623
248	0xbd91b870	-0.07115257
249	0xbe3347f7	-0.17507921
250	0x3bdf0a86	0.0068066744
251	0xbc27187b	-0.010198708
252	0x3df94489	0.12171275
253	0x3d1a7633	0.03771038
254	0xbde246e6	-0.11048679
255	0xbd8367f4	-0.06416312

sequential_3/dense_11/MatMul f4 [1, 32]
0	0x3ea48ca3	0.32138547
1	0xbe9de661	-0.30839828
2	0xbe5e1de9	-0.21691097
3	0x3eb8ddcb	0.36106715
4	0xbe8902b2	-0.2675987
5	0x3e8cfc12	0.27536064
6	0xbe6de882	-0.23233226
7	0x3e9ee6d8	0.31035495
8	0xbe96562c	-0.2936262
9	0xbd87acc6	-0.06624751
10	0xbe485722	-0.19564489
11	0xbe4f1d95	-0.20226128
12	0xbe681745	-0.22665127
13	0xbe96f988	-0.29487252
14	0x3eb35b90	0.35030794
15	0x3e96b5e7	0.29435655
16	0x3e347f14	0.17626601
17	0x3e8fdb6d	0.28097096
18	0x3e08a697	0.13344799
19	0xbe1ed5ab	-0.15511195
20	0xbdc399f1	-0.09550846
21	0xbe494782	-0.19656184
22	0x3e77636e	0.24159023
23	0xbe968d8d	-0.2940487
24	0xbd04757f	-0.032338616
25	0xbea1d47d	-0.31607428
26	0x3e933187	0.28748724
27	0x3e0a9928	0.13534987
28	0xbbf790b2	-0.007555091
29	0xbdf46820	-0.11933923
30	0xbe9db136	-0.30799264
31	0xbe0de6b3	-0.13857536
