Food_Greenix/tflite/new_model_jagung.tflite (tflite, 10824 bytes, 4 tensors)

sequential_2/dense_6/BiasAdd/ReadVariableOp f4 [64]
00000000: fbb2 f0ba 4914 303c 9d97 2c3c 09b6 d83c
00000010: ed0e 393c 9768 c3bb 528c 9abc a23d dc39
00000020: 0091 01bd 2451 d93a dc85 14bc cd7a 1abb
00000030: f04b 783c 6913 1cbc 9359 6c3c 5073 96bc
00000040: ddbc 05bc a01d 0abc ed96 ac3b 5c84 c7bc
00000050: eb45 093d 9bf2 90bc 5011 c7bb 201f efbc
00000060: aed0 78bb 2d37 bd3c 24a7 c63c 3de9 0b3c
00000070: bb01 b43c cd23 693c 47ee 07bc 9501 63bd
00000080: 9104 873c 350a a2bc 6185 0b3d 12a1 4d3c
00000090: ca16 b93a 5aac 08bd fa15 113d a5e9 78bc
000000a0: bedb 56bc fda5 01bc e29c 1e3c 3444 73bc
000000b0: 7b13 11bd 3fab 36bc 0609 313d 01ec f8bc
000000c0: bf07 17bc 4497 32bc c6fd bfbc 34aa 04bd
000000d0: bd4e 1b3c b7c2 083d ca56 9cba d507 17bd
000000e0: e67b c03a b674 5e3d 60f0 e139 9fb9 45bc
000000f0: 8887 57bd 253a 62bb 74ed f7bc 5f91 e13c
-0.0018363887 0.010747024 0.010534194 0.026453989 0.0112950625 -0.005963396 -0.018865738 0.0004200759
-0.031632423 0.0016579968 -0.009065118 -0.002357173 0.015154824 -0.009526112 0.014425653 -0.018365532
-0.008162704 -0.008429915 0.005267015 -0.024355106 0.033513945 -0.017693808 -0.006075062 -0.029189646
-0.003796618 0.023097599 0.02424962 0.008539495 0.021973481 0.014229727 -0.008296556 -0.05542143
0.01648167 -0.019780258 0.034062747 0.012550609 0.0014121172 -0.033367492 0.03542135 -0.015192424
-0.013113914 -0.00791311 0.009680958 -0.014847804 -0.03541897 -0.011149227 0.043221496 -0.030385973
-0.009218155 -0.010900322 -0.023436438 -0.03238888 0.009479222 0.03338882 -0.0011927721 -0.036872704
0.0014685362 0.054310523 0.00043094438 -0.012068181 -0.052619487 -0.003451952 -0.030264594 0.027535139

sequential_2/dense_6/MatMul f4 [64, 2]
00000000: 6a8e 0b3d c443 a9be f10c 14be 6db0 02be
00000010: ac34 30be c0cf 9f3d bcbe 7abe 9e3e a73e
00000020: 110a 81bd c793 7dbd 9a08 afbc f030 613e
00000030: 778e 35bd cbff 763e b873 1c3d f22d 2f3e
00000040: 2471 963d 934a 2dbc b3e1 fd3d 73fb 23bd
00000050: 79fa 3b3e c051 09bc 228b 8d3d 5a15 51be
00000060: a5e7 76bd 4036 8bbe 2dac 603e a0da 51be
00000070: 8193 96bd 47c0 b7bd 0c81 8e3e 1d2d 2e3e
00000080: ba57 c93d 7e4a a23e 6111 333d 721f f4bd
00000090: 2124 f9bc 65b0 273e e8a9 0c3e ce69 173e
000000a0: 4e68 87bd f434 50bd ca09 db3d de49 c0bd
000000b0: 9264 3d3e 1945 4fbe 3a8f 293e 6b9e 3ebd
000000c0: ca00 b33d 239f 953e 88db 69be 5c79 27be
000000d0: fd82 68be 0371 97be c1b4 fcbd b9d4 08be
000000e0: 5bac d5bd 0238 f93d ecd2 78be 4f56 7c3d
000000f0: 5099 49bd 984d a43e 2f94 823e d1d5 933e
00000100: 2431 21be 14e8 7ebe ab2f 923e a167 6abe
00000110: 5f00 53bd 5417 b93e 67e7 78be e766 6abd
00000120: 3fc8 4fbc 56b9 b23e 8314 843e 85d1 7c3e
00000130: 62bd cebd cbee 7b3e 678c e0bd 2fdd cc3d
00000140: be1f d53b e0fb ed3c 3f94 b23d d71f 963e
00000150: cec6 32be 9e45 3cbe 913a 23ba 91a9 3b3e
00000160: e36e 643e 94b6 a7bd ac37 993d 4e6b 6fbe
00000170: acb2 76be 92d6 793e 4064 313e 65db 193e
00000180: be7e 823d f4d7 64be dde9 393e 1d45 67be
00000190: b767 623d 0d7c 55be 117d 863d 805b 5bbd
000001a0: d025 55be 52e6 623d ae6a 11be d8f2 af3d
000001b0: f497 b6bc bec4 143e bc3b 423e 74cf eebd
000001c0: 179f 9a3a 4764 a5be 4a4e 6abe 372b d7bd
000001d0: 47fe 4c3d 7575 933d c67a f43d 9c72 f13d
000001e0: 14e2 ea3d c95a aa3d 106a 823d d8fa 54bc
000001f0: 22df 673e 4b5d 673e 4ca1 b9bd e15a 173e
0.034071364 -0.33059514 -0.14458062 -0.12762614 -0.17207593 0.07803297 -0.24486822 0.3266496
-0.06300748 -0.06190851 -0.021366406 0.21991324 -0.04432532 0.24121015 0.038196295 0.1710737
0.073457986 -0.010576862 0.12396564 -0.040034723 0.18357266 -0.008381307 0.06911303 -0.20418301
-0.060279507 -0.27189827 0.2194068 -0.20493555 -0.07352353 -0.08972221 0.2783283 0.17009397
0.09831186 0.31697458 0.043717746 -0.1192006 -0.030412735 0.16375883 0.13736689 0.14786455
-0.066116914 -0.05083175 0.106952265 -0.09389089 0.18495396 -0.20241202 0.16558543 -0.046537798
0.08740385 0.29222974 -0.22837651 -0.16354889 -0.22706218 -0.2957841 -0.123391636 -0.13362397
-0.10433265 0.12168886 -0.2429921 0.061605748 -0.049218476 0.3209045 0.2550368 0.28874066
-0.15741402 -0.24893218 0.28551993 -0.22891094 -0.051514026 0.3615061 -0.24307023 -0.05722704
-0.01268202 0.34907025 0.257969 0.246893 -0.10094716 0.24602811 -0.109642796 0.10003125
0.006504028 0.029050767 0.08719682 0.29321167 -0.1745865 -0.18385932 -0.00062266836 0.18326403
0.22307925 -0.08189121 0.07481322 -0.23380777 -0.24091595 0.24398258 0.17323399 0.15025099
0.063718304 -0.22348005 0.18155618 -0.22584958 0.05527469 -0.20848103 0.06566823 -0.053554058
-0.20815206 0.05539543 -0.14200851 0.08591241 -0.022289254 0.14528176 0.189681 -0.11660662
0.001179668 -0.32303068 -0.22881427 -0.105062895 0.050047185 0.072001375 0.1193748 0.11789438
0.11468902 0.08318097 0.06367886 -0.012999259 0.22643712 0.22594182 -0.09063968 0.14780761

sequential_2/dense_7/MatMul f4 [32, 64]
00000000: 8ee1 5dbe 5bb3 fa3d 439b f5bc 6ad9 fc3d
00000010: 51f9 80bd 6973 003d dff3 40be a2d9 9abd
00000020: 2b80 c83c e6ed 28bc a2d5 64bc 0a3c 3dbd
00000030: 4d8b 323e 3517 8d3d f961 603e 7b1c 71be
00000040: 6a63 093e aa1c 023d 0a92 86bd 7530 033e
00000050: 8bf2 18be 9ab4 6dbd d718 523c a9b4 22be
00000060: fc5b 1f3e e4c9 063e 90ff 1ebe c8ab 49be
00000070: 3d9b ffbd 31ca 25be 830e 11be 6325 80bd
00000080: d562 24be 8f76 7b3a e3b3 683e 595b 4dbe
00000090: d6be be3d 6b27 643e 214d 1a3e 3747 303c
000000a0: e287 823e 229f 823e 3a98 683e 7e7f aa3d
000000b0: a4de 133e 9b3e 5abc dc24 703c 30d9 473c
000000c0: 238c cebd 4e0a 15be f353 2fbe 1b2e 133e
000000d0: 98e4 55bd 2bc5 1dbe 3f5e 48be 2401 8cbd
000000e0: 5825 33be f334 543d 1e4f 883d 582c aebd
000000f0: 138d 803e 6550 42be 8164 cebd 8437 6d3e
00000100: d900 733d 55a7 80be f7ec 06be 6101 a93d
00000110: a4f2 693e 7e90 903e d324 2b3d 6008 b13c
00000120: cce3 103e cd89 0bbe 44dc 3c3e 00c6 62be
00000130: bb55 8bbc 1ebb 2abe 009f eabd a4d6 debd
00000140: 15ee 9f3d 1064 88bc afc0 903e ee1c 323b
00000150: 333e 8a3d 5157 363e 517f bdbd dcee 283e
00000160: 0e2e 443e b4e8 18be e215 803e 80d2 393e
00000170: 8437 9a3d 6c41 ea3c eb90 34be cbdb 633d
00000180: 8d30 87be 9987 6a3e 944e 8cbd f5c0 1a3e
00000190: b0f5 b8bd bbcd 4bbe 30ac f9bd 5300 8e3e
000001a0: 112c debd b384 f83d ae34 5cbe 842f e23d
000001b0: c2ee ec3d db97 bfbc 029a eabc 5e55 0dbe
000001c0: 5af0 503e 776f f53d 2f13 453e 30e8 e8bd
000001d0: 6f8e 153e ccc0 553e e32c fabd 04bf f43d
000001e0: 0f92 7abd 6449 963d 9c45 4cbe 8b23 853e
000001f0: 8021 443e 9d87 6cbe b8ea dabd 03f9 6a3e
00000200: fa90 a3bc ab42 c6bd 5c4e 623d ec78 19bc
00000210: 72b3 24be f85f 33be 0d94 90be 3b4c ca3c
00000220: 19d6 bb3d 41a9 eebd cb4d c5bd 3c3c 213d
00000230: 6b7e 513e bd68 333e 70e1 0ebe faaa d0bc
00000240: c45f 7c3d 1a7f 9c3d a343 d1bd 4638 f33b
00000250: 5aa0 2ebe b3ef c8bd b9c6 383e 5be8 7cbe
00000260: bac1 f2bd 8af4 273e 7ca3 16bd 32d7 d93d
00000270: 21bb 9ebc 9ef8 5cbe 403d 85bd 3b5b 60be
00000280: 9943 98bd 3b85 bb3d 23a2 023e 6517 103e
00000290: 830f 16bd e02e e83d 3700 c9bd aa82 e5bd
000002a0: 5531 723e ca0b 2abe 0aac 71bd a74a e3bd
000002b0: ad67 84be 03ab 16be 12c4 053d c1dc 813c
000002c0: 6005 9d3c dd4b 28be d371 70be 2d25 803e
000002d0: 4d18 08be e6c6 4a3e 8a32 94bd 6a41 16be
000002e0: 6466 7f3e b24c 143e 3a5d 60be 82aa 7ebd
000002f0: c2cc 683e 45a0 683d f8b9 4fbe 4cd9 243e
00000300: b1a3 733d 7ea2 5abe 2e76 67be 7aab 233c
00000310: daa6 6dbe a0dc 6c3e 998a 863b ae5e 403d
00000320: 7d43 673e 66bc 62bd 0943 69be aa61 6ebe
00000330: eadd 4e3e b971 8fbb 6cb3 52bd 48db 2cbd
00000340: 6611 71be c482 06be 40ce babd 0fd7 3dbe
00000350: 6b8c fd3d 48e6 2fbe 5498 fbbc 9a2d 663e
00000360: f44a d0bd 825c 163e 9a80 c0bd f10b 52be
00000370: 8ccf 19be a576 bdbc 221e 4c3d 7bf1 6b3d
00000380: f9bf 1e3e ff47 66bd 5f05 fd3d f91c 00be
00000390: da9b ddbd bb61 d83d 9767 00be b4e8 05be
000003a0: a8bc b33d fa5d 0a3e 8fbe 7bbe b049 eb3d
000003b0: d75e 29be 83a2 1c3d 5ab0 c83d bad8 3f3d
000003c0: 278f ffbd ae8e 39bc 2d45 d2bd 9388 a6bc
000003d0: ed40 02be 8c79 1d3e ae5a 1e3e 93e1 833d
000003e0: dce1 6cbe 0a3a ab3d f283 ba3d 5020 4abe
000003f0: 467a ec3d 59fd 25bd 736a 4dbe 8ad9 0ebe
-0.21668074 0.122412406 -0.029981261 0.12346156 -0.06297553 0.031360064 -0.1884303 -0.075610414
0.024475178 -0.010310626 -0.01396695 -0.046199836 0.17435952 0.06889192 0.21912374 -0.2354602
0.1341683 0.031765617 -0.065708235 0.12811454 -0.14936273 -0.058033563 0.012823305 -0.15889229
0.15562433 0.13162953 -0.15527177 -0.19694436 -0.12480781 -0.16190411 -0.14165692 -0.06257131
-0.16053326 0.0009592557 0.22724871 -0.20054378 0.09313743 0.22280662 0.15068485 0.010759166
0.25494295 0.25512034 0.2271432 0.083250985 0.144404 -0.01332059 0.014657225 0.012197778
-0.10085323 -0.14554712 -0.17121868 0.14373057 -0.052219957 -0.15407245 -0.19567202 -0.06836155
-0.17494714 0.05180831 0.066557154 -0.08504552 0.2510763 -0.1897598 -0.10077763 0.23165709
0.05932698 -0.25127664 -0.13176332 0.08252216 0.22846466 0.2823524 0.041783165 0.021610439
0.14149398 -0.13626786 0.184434 -0.22145844 -0.017008653 -0.16672942 -0.11456108 -0.10880783
0.078090824 -0.016649276 0.28272006 0.0027177888 0.06750145 0.17806746 -0.09252799 0.16497368
0.19158193 -0.14932519 0.25016695 0.18146706 0.0753012 0.028595649 -0.17633407 0.055629533
-0.2640423 0.22903289 -0.06850925 0.1511267 -0.09031236 -0.19902699 -0.12191045 0.27734622
-0.10848249 0.12134685 -0.2150447 0.11044219 0.11568977 -0.02338784 -0.02863789 -0.13802096
0.20404187 0.11984151 0.19245599 -0.11372411 0.14605115 0.20874327 -0.12215593 0.11950496
-0.06117445 0.07338217 -0.19948429 0.2600368 0.19153404 -0.23098607 -0.106893 0.22946553
-0.019966591 -0.09680685 0.05525051 -0.009367209 -0.16084078 -0.17517078 -0.28237954 0.024694553
0.09171695 -0.11653376 -0.096339785 0.039364085 0.20458381 0.17520423 -0.13953185 -0.025472153
0.061614767 0.0764143 -0.10217979 0.00742248 -0.17053357 -0.09811344 0.18044557 -0.24698012
-0.11853357 0.16401878 -0.036777005 0.106367484 -0.01937634 -0.21579215 -0.06505823 -0.21909802
-0.07434768 0.09156271 0.12757163 0.14071424 -0.036635887 0.11337066 -0.09814494 -0.11206563
0.23651631 -0.1660606 -0.05900196 -0.11098223 -0.25860348 -0.14713673 0.03265769 0.015852334
0.019167602 -0.1643519 -0.2348092 0.25028363 -0.1329052 0.19802436 -0.07236202 -0.14673391
0.24941403 0.14482382 -0.21910563 -0.062174328 0.22734359 0.05679347 -0.20285785 0.16098517
0.05948228 -0.21351048 -0.22603676 0.009989614 -0.2320818 0.23131037 0.0041058776 0.046965294
0.22584338 -0.055355452 -0.22779478 -0.23279443 0.20201841 -0.0043775705 -0.05144064 -0.04220131
-0.23541793 -0.1313582 -0.0912137 -0.1853907 0.12380298 -0.17177689 -0.030712284 0.22478333
-0.10170546 0.14683726 -0.09399529 -0.20512368 -0.15020579 -0.023127863 0.049833424 0.05760334
0.1550292 -0.056221005 0.1235454 -0.12511052 -0.10820742 0.105655156 -0.12539516 -0.1307705
0.08776218 0.13512412 -0.24584411 0.11488664 -0.16540085 0.03824092 0.097992614 0.046837546
-0.12478476 -0.011325521 -0.102671005 -0.020328796 -0.1272008 0.15378398 0.15464279 0.06439509
-0.23133034 0.083606794 0.09107198 -0.19738889 0.11546759 -0.040524814 -0.20060138 -0.13950172

sequential_2/dense_8/MatMul f4 [1, 32]
00000000: 32e6 853e fa2b c83d a21b cbbc ba0d 773e
00000010: 6b43 b83e 4f49 b53e 704f 683e 74dd b2be
00000020: ef2b d0be 70a8 24bd d9df 3a3e f902 b8be
00000030: d7dc b33e b17b 1ebe 7e61 943e 1a82 a63c
00000040: 1226 283d f607 103d 110b ca3c 3048 a73e
00000050: 4ef4 50be f67a aabe ba8a bf3e 0e88 a63e
00000060: b8ca 973e d648 5c3d 7e76 af3e bbc9 813e
00000070: 4a15 e63d 5553 3b3e e526 1f3e 3a9d a0be
0.26152188 0.09774013 -0.02479345 0.2412633 0.35988936 0.35407493 0.22686553 -0.3493458
-0.4065852 -0.040199697 0.18249454 -0.35939768 0.35129425 -0.15476872 0.2898063 0.02032571
0.04105193 0.035163842 0.02466348 0.32672262 -0.20405695 -0.33296937 0.37410527 0.32525676
0.2964685 0.0537804 0.3427009 0.2534922 0.11234529 0.18293507 0.15542181 -0.31369954
