Food_Greenix/tflite/new_model_minyak.tflite (tflite, 10848 bytes, 4 tensors)

sequential_5/dense_15/BiasAdd/ReadVariableOp f4 [64]
0	0xbcf14133	-0.029450035
1	0xbafa9b82	-0.0019119831
2	0x3c814354	0.015779175
3	0xbd315ac6	-0.04329946
4	0xbd9b6e7a	-0.07589431
5	0x3d852714	0.06501594
6	0x3cec1dfb	0.02882289
7	0xbc970ac8	-0.018437758
8	0xbd1e541d	-0.038654435
9	0xbd11e141	-0.03561521
10	0x3d20c885	0.03925373
11	0xbd5f091a	-0.05445204
12	0x3cda02af	0.026612608
13	0x3c29daf0	0.01036714
14	0xbb8ac41c	-0.004234804
15	0x3bebc9bc	0.0071956795
16	0x3d000419	0.031253908
17	0x3cd8c6e9	0.026462035
18	0x3d29715e	0.04136788
19	0xbbe816bb	-0.007082788
20	0xbca66a84	-0.020314462
21	0xbc86392c	-0.016384684
22	0x3cdc4d2a	0.026892263
23	0x3d864e05	0.0655785
24	0x3c66ef7d	0.014095184
25	0x3ba12d80	0.004918754
26	0x3ce78a77	0.028264267
27	0xbd1b7c00	-0.037960052
28	0x3d36f3dc	0.044666156
29	0xbc4e0eb8	-0.012576751
30	0x3c9e110d	0.01929524
31	0xbcf29f72	-0.029617045
32	0x3c86a8f9	0.016437994
33	0x3d91dc52	0.07122101
34	0xbdb8decc	-0.0902687
35	0xbd46d398	-0.048541635
36	0xbc3da7a5	-0.011575614
37	0x3d92c10c	0.07165727
38	0x3d63da3c	0.055628046
39	0x3ced8f33	0.028998947
40	0x3d543e3c	0.051817164
41	0x3d92142c	0.07132754
42	0x3d8a9692	0.06767
43	0x3c842121	0.016129078
44	0xbc6ea87d	-0.014566538
45	0xbd1edd53	-0.03878529
46	0x3d26b5d1	0.040700737
47	0xbb295286	-0.0025836541
48	0xbd1004d1	-0.035160843
49	0xbc2b1880	-0.010442853
50	0x3d22cb9e	0.039744966
51	0x3c3fb61d	0.011701134
52	0xbcc180ad	-0.023620928
53	0xbd0ab49e	-0.033863656
54	0xbdb002c4	-0.085942775
55	0xbd5ac578	-0.053410977
56	0xbd2521f2	-0.040315576
57	0x3d31a26d	0.043367792
58	0xbbe8db2e	-0.0071062064
59	0xbca4e516	-0.020128768
60	0xbd4b00f2	-0.04956145
61	0xbd2d049d	-0.042240728
62	0xbd0362c1	-0.0320766
63	0x3d426a2f	0.047464546

sequential_5/dense_15/MatMul f4 [64, 2]
0	0x3db73611	0.08945859
1	0xbebd4208	-0.3696444
2	0xbc733608	-0.014844425
3	0x3d8c71e3	0.0685766
4	0xbe5bdecb	-0.21471708
5	0x3dca5971	0.09880341
6	0x3e044716	0.12917742
7	0xbdf27813	-0.118393086
8	0x3e2d3150	0.16913342
9	0xbed43069	-0.41443184
10	0xbe12ec2a	-0.14347902
11	0xbca01fbb	-0.01954638
12	0xbda40976	-0.08009617
13	0x3c776a71	0.015101061
14	0x3c2645e6	0.010148501
15	0x3eb6d58a	0.35709792
16	0x3dd37961	0.103258856
17	0xbe727c20	-0.23680162
18	0x3def85a2	0.1169541
19	0xbe8e191a	-0.27753526
20	0xbe02a1f7	-0.12757097
21	0xbdd6a2e8	-0.10480291
22	0x3e6639a3	0.22482924
23	0x3e812aa8	0.25227857
24	0xbd10c1d9	-0.035341118
25	0xbebd8be3	-0.37020788
26	0x3dc0385d	0.093857504
27	0xbdb70cba	-0.08937974
28	0xbc952f5a	-0.018211056
29	0x3eb2c621	0.34916785
30	0xbd53b58e	-0.051686816
31	0xbe5cff51	-0.2158177
32	0xbda1e7b9	-0.07905526
33	0xbe8331ae	-0.2562384
34	0xbd50cb08	-0.050974876
35	0x3e11700e	0.14202902
36	0xbd89414d	-0.06701908
37	0xbbeb2521	-0.007176057
38	0x3d6227eb	0.05521385
39	0x3dd0f59b	0.102030955
40	0x3e167f23	0.14696936
41	0xbd5a6d69	-0.053326998
42	0x3c903ec6	0.017608058
43	0xbe9d704d	-0.3074974
44	0xbaddc8a5	-0.0016920759
45	0xbe9dccb6	-0.30820245
46	0xbe1fa5e2	-0.15590623
47	0x3e60f8ba	0.21969882
48	0xbcfb5c6e	-0.030683722
49	0xbddd4710	-0.1080457
50	0xbb5fb69c	-0.0034135943
51	0xbe6be39b	-0.23036043
52	0xbd78cc46	-0.060741685
53	0xbebb56e8	-0.36589742
54	0x3dbdf5f3	0.09275427
55	0x3e3a8688	0.18215382
56	0xbdde6b0d	-0.10860262
57	0xbed21818	-0.41034007
58	0x3ce53a6d	0.027981961
59	0xbe95c608	-0.29252648
60	0xbc2b0a1c	-0.010439422
61	0xbebe235e	-0.37136358
62	0x3d15e1fe	0.036592476
63	0xbeb69e98	-0.35667872
64	0xbcb6fc00	-0.02233696
65	0x3ec3c259	0.38234213
66	0xbdaca821	-0.084305055
67	0x3e6b8ff6	0.23004135
68	0x3e1e296d	0.1544549
69	0x3e086c86	0.13322648
70	0x3e41397c	0.18869585
71	0x3e7c8408	0.24659741
72	0x3d0f18e5	0.03493585
73	0xbeea0466	-0.4570648
74	0xbe18a72e	-0.14907524
75	0x3ee5571d	0.44793025
76	0xbe4b6471	-0.19862534
77	0x3e2727dc	0.16323799
78	0xbd64eac9	-0.05588797
79	0x3ed7ea21	0.42170814
80	0xbe27e8bd	-0.16397376
81	0xbeb34bcb	-0.35018763
82	0xbdc931a0	-0.09823918
83	0x3ed677c4	0.4188825
84	0xbe2ea035	-0.17053302
85	0x3eaaf1ae	0.33387512
86	0xbe868304	-0.26271832
87	0xbd82874f	-0.06373464
88	0x3d38546f	0.045002397
89	0x3e4256ac	0.18978375
90	0x3d98c8bf	0.07460164
91	0xbedc51ef	-0.4303126
92	0xbd900d2f	-0.070337646
93	0xbdb6f73a	-0.089338735
94	0x3d77c394	0.060489252
95	0x3e03ae64	0.12859493
96	0x3d2f8308	0.04284957
97	0xbe8bade7	-0.27281114
98	0x3d07e4ea	0.033177294
99	0x3e25c95c	0.16190094
100	0xbd34bc5a	-0.04412494
101	0xbea15139	-0.3150728
102	0x3db76713	0.08955207
103	0x3d50e6bf	0.051001307
104	0x3cc5e065	0.024154851
105	0x3ea75247	0.3267996
106	0x3e1c4598	0.15260923
107	0xbdc1e300	-0.09467125
108	0x3e7683c5	0.24073704
109	0xbdf22b78	-0.11824697
110	0x3d2bb4dd	0.04192053
111	0xbec1c026	-0.3784191
112	0x3e12f7be	0.14352319
113	0xbe63cb89	-0.22245611
114	0xbe07b5e5	-0.13252981
115	0xbe80c204	-0.25148022
116	0x3cf2dc06	0.029645931
117	0xbec38a0a	-0.38191253
118	0x3ca7765b	0.020442178
119	0xbe8b08c3	-0.27155122
120	0x3d8ac0cd	0.06775055
121	0x3eb64b3b	0.3560427
122	0x3dc390de	0.095491156
123	0xbe78d6e5	-0.24300726
124	0x3d8268cc	0.06367645
125	0x3e9377a0	0.28802204
126	0xbde80af5	-0.11330215
127	0xbc10da6d	-0.008841139

sequential_5/dense_16/MatMul f4 [32, 64]
0	0xbe64b48a	-0.22334495
1	0xbd579673	-0.052633714
2	0x3ca7bdfe	0.020476338
3	0xbe549d6c	-0.20763177
4	0x3db4a777	0.08821004
5	0x3d8acad1	0.067769654
6	0xbd448b8e	-0.047984652
7	0xbd9787af	-0.073989265
8	0xbe8d2464	-0.27566826
9	0xbe5a50e2	-0.21319917
10	0x3e76afd5	0.24090512
11	0x3dc8cd34	0.098047644
12	0x3e0df89d	0.1386437
13	0x3ddf98d0	0.109178185
14	0x3e2657db	0.16244452
15	0xbd9e4aab	-0.077290855
16	0xbe5bcf16	-0.21465716
17	0x3ce6e5b9	0.028185712
18	0xbd90e2c0	-0.07074499
19	0x3ae82150	0.0017710123
20	0x3e033c02	0.1281586
21	0xbd869ef9	-0.065732904
22	0xbca550ec	-0.020180188
23	0xbd468887	-0.048470046
24	0x3e058799	0.13040008
25	0xbe4abc35	-0.19798358
26	0x3e21bee3	0.15795474
27	0x3d40f73a	0.047110774
28	0xbe5ed80b	-0.21762101
29	0xbea8404a	-0.3286155
30	0xbdfc6988	-0.12324816
31	0x3dbaa5a1	0.091136225
32	0xbd8f833d	-0.070074536
33	0x3d8858e8	0.066575825
34	0x3e4966be	0.196681
35	0x3d849511	0.06473745
36	0xbdaaafe6	-0.08334331
37	0x3e92af9d	0.28649607
38	0xbe27cea5	-0.16387422
39	0x3bf45be7	0.0074572447
40	0xbc25de16	-0.01012375
41	0x3d24a21f	0.040193673
42	0x3e109403	0.14118962
43	0xbe1d0ed6	-0.1533769
44	0x3ca1fbcc	0.019773386
45	0xbea14990	-0.31501436
46	0xbe792b34	-0.24332887
47	0xbe77cc8e	-0.24199125
48	0xbe22e741	-0.15908529
49	0x3d77c439	0.060489867
50	0xbe3e74f9	-0.18599309
51	0xbe411558	-0.18855798
52	0x3e98f0cc	0.29871213
53	0x3e10ab85	0.1412793
54	0xbe078d88	-0.13237584
55	0x3dc6613e	0.09686516
56	0xbe711899	-0.2354454
57	0xbe0b41a4	-0.13599259
58	0xbea1437f	-0.31496808
59	0x3ded54ff	0.11588477
60	0x3e40eba9	0.18839897
61	0xbdf370cf	-0.11886751
62	0x3e67a561	0.22621681
63	0x3acdbbd9	0.0015696242
64	0x3dccde8c	0.10003385
65	0x3d97d606	0.074138686
66	0x3d44fb93	0.048091482
67	0xbccf6210	-0.025315315
68	0xbc9d0353	-0.019166624
69	0x3db2bbb5	0.087272085
70	0x3e82ae07	0.25523397
71	0x3dfb5af3	0.122732066
72	0xbe0905e9	-0.13381161
73	0x3e2f9b57	0.17149101
74	0x3e385e9e	0.18004844
75	0xbe5387a3	-0.2065721
76	0x3e3a0963	0.18167643
77	0xbe11efb6	-0.14251599
78	0xbe7ddd78	-0.24791515
79	0x3d09eb05	0.033671398
80	0x3e56a22a	0.20960298
81	0xbd412d80	-0.047162533
82	0x3dbcc08b	0.09216412
83	0xbd0ed6c7	-0.034872796
84	0x3e3fd10e	0.18732092
85	0x3dd0d3bb	0.101966344
86	0x3e935e37	0.28782818
87	0xbdfa526e	-0.122227535
88	0x3d391abd	0.045191515
89	0x3ec04485	0.37552276
90	0x3d654a17	0.05597886
91	0xbe29152e	-0.16511986
92	0xbdb7a682	-0.08967306
93	0x3d622588	0.055211574
94	0x3cbe1ee7	0.023208095
95	0xbe052884	-0.13003737
96	0xbe8dba53	-0.27681217
97	0xbc6e2ddc	-0.014537301
98	0x3ab8a809	0.0014088164
99	0x3e7ddc8f	0.24791168
100	0x3ec13f9f	0.37743852
101	0xbe28b340	-0.16474628
102	0xbe39c2d2	-0.18140724
103	0xbe143c20	-0.14476061
104	0xbe150d40	-0.14555836
105	0xbe09794f	-0.13425182
106	0xbe490342	-0.19630149
107	0xbe07ae32	-0.13250044
108	0xbdd031e8	-0.10165769
109	0x3eacd78d	0.33758202
110	0x3e70aa0b	0.23502366
111	0x3e28807d	0.16455264
112	0x3c99be12	0.01876739
113	0xbe8f26b7	-0.27959225
114	0x3cf2686f	0.029590813
115	0xbe61a610	-0.22036004
116	0xbe95a44c	-0.2922691
117	0xbdcf5c4f	-0.10125028
118	0xbe2f2417	-0.17103611
119	0xba76ee5a	-0.00094196724
120	0x3e7c9b9d	0.24668737
121	0xbe26ac22	-0.16276601
122	0x3de0a4c6	0.10968928
123	0x3e05f9e9	0.13083614
124	0xbe08347b	-0.1330127
125	0xbe32b38d	-0.17451306
126	0xbe995f00	-0.29955292
127	0x3e12aff2	0.1432493
128	0xbca34680	-0.019931078
129	0xbe40d7c7	-0.18832313
130	0xbd8b9f77	-0.06817525
131	0xbc4089c3	-0.011751595
132	0xbda9f714	-0.082990795
133	0xbd0ad294	-0.03389223
134	0x3dfb629e	0.12274669
135	0x3e89f03a	0.2694109
136	0x3dd6f6bc	0.104962796
137	0xbe8a1880	-0.26971817
138	0xbe3f9bb8	-0.18711746
139	0x3d3d2799	0.04618034
140	0x3c0bb76c	0.008527618
141	0xbe78e85e	-0.24307391
142	0x3ec8754a	0.39151984
143	0x3e2e2943	0.17007928
144	0x3bf609d5	0.0075084963
145	0xbe167400	-0.14692688
146	0x3df33d68	0.11876947
147	0xbbe0aaa8	-0.0068562813
148	0x3e4dafd7	0.20086609
149	0xbd84b2a4	-0.064793855
150	0xbdafe0db	-0.0858781
151	0xbdd2430d	-0.10266695
152	0x3cf3dc62	0.029768173
153	0xbe9ce884	-0.30646145
154	0xbb49b865	-0.0030780074
155	0x3dff177e	0.12455653
156	0xbe7eaedc	-0.24871391
157	0xbe4ac1c5	-0.1980048
158	0x3dbeb854	0.093125015
159	0xbd895c99	-0.06707115
160	0xbd84f21f	-0.064914934
161	0x3e5468be	0.20743081
162	0x3bc0a489	0.005878989
163	0x3da05f3f	0.07830667
164	0xbd7bde55	-0.06149133
165	0x3e133b04	0.14377981
166	0xbe17f968	-0.14841235
167	0xbdb9af23	-0.09066608
168	0xbdc8207a	-0.097718194
169	0x3d509b3b	0.05092929
170	0x3e705efd	0.23473735
171	0x3d9de97e	0.07710551
172	0xbddab08d	-0.10678206
173	0xbea3f00e	-0.32019085
174	0xbdde2dc3	-0.10848572
175	0x3e0d6966	0.13809738
176	0x3d6928c2	0.056923635
177	0x3e4db233	0.20087509
178	0x3ced699e	0.028981026
179	0xbc402fe4	-0.011730168
180	0x3e9d2e26	0.3069927
181	0xbe2612fc	-0.1621818
182	0x3d735b18	0.059413046
183	0x3dda3092	0.10653795
184	0xbd4b6467	-0.049656298
185	0x3e244754	0.16042835
186	0xbe6de1ff	-0.23230742
187	0xbe357d07	-0.17723475
188	0xbde4e749	-0.11176927
189	0x3c6bdd64	0.014396045
190	0x3d56bed9	0.0524281
191	0x3c863c06	0.016386043
192	0x3e9d38d0	0.30707407
193	0xbd9a5c51	-0.07537139
194	0x3d60d138	0.054887027
195	0x3e3894ff	0.18025587
196	0x3c5ddd6d	0.013541562
197	0x3e032cff	0.12810133
198	0x3d689aed	0.056788374
199	0x3c9608c1	0.018314721
200	0xbddd8306	-0.10816006
201	0xbc8b0faf	-0.016975252
202	0x3e017080	0.12640572
203	0xbcb0ae18	-0.02156739
204	0x3e770497	0.24122845
205	0xbdd78dca	-0.10525091
206	0xbe3093f8	-0.17243946
207	0xbdefc4f8	-0.11707491
208	0x3e874b36	0.2642457
209	0xbdebe421	-0.115181215
210	0x3d544283	0.051821243
211	0xbc3cb36e	-0.011517389
212	0x3e6162ea	0.22010389
213	0xbddf4108	-0.109010756
214	0xbc0e7841	-0.008695663
215	0xbde765b4	-0.11298695
216	0x3dc0aa75	0.09407512
217	0x3db64eb7	0.089017324
218	0x3d9f3a69	0.07774813
219	0xbb99ecc5	-0.0046974146
220	0xbe517337	-0.20454107
221	0xbd819053	-0.06326356
222	0xbcea4a64	-0.028599925
223	0x3e77d0c6	0.24200734
224	0xbdb5342a	-0.0884784
225	0x3ddd4c5a	0.108055785
226	0xbe03078e	-0.1279585
227	0xbe5d57e4	-0.21615559
228	0x3ec3ccf9	0.3824232
229	0x3dc0e6c9	0.09419019
230	0x3daddc61	0.084892996
231	0x3d6cc03e	0.057800524
232	0x3e6ddee2	0.23229554
233	0xbe9adbd3	-0.30245838
234	0x3dfbe051	0.12298644
235	0xbe6e5448	-0.23274338
236	0xbd6006c4	-0.054693952
237	0xbdcf3a11	-0.10118497
238	0x3e71a44c	0.2359783
239	0xbe425e5e	-0.1898131
240	0xbdb2967e	-0.0872011
241	0x3da16982	0.07881452
242	0x3e1bd794	0.15218955
243	0xbe381d91	-0.17980029
244	0xbb83034d	-0.003998196
245	0xbd041574	-0.03224702
246	0x3e3030fc	0.17206186
247	0x3ea68db3	0.32529983
248	0x3e48023c	0.19532102
249	0x3cf78538	0.03021489
250	0x3ea4106f	0.32043788
251	0x3d26e177	0.040742364
252	0x3d38c3fb	0.045108777
253	0xbdc33a63	-0.09532621
254	0xbe2e481f	-0.170197
255	0xbdfd1841	-0.12358142

sequential_5/dense_17/MatMul f4 [1, 32]
0	0x3e9e7b8d	0.30953637
1	0xbea37e35	-0.31932226
2	0x3e2bd9cd	0.16782303
3	0xbea6c448	-0.32571626
4	0x3e10ff24	0.14159828
5	0x3e150094	0.14551002
6	0x3e978efd	0.2960128
7	0x3e75281b	0.2394108
8	0x3ed86b1d	0.4226922
9	0xbe2e028d	-0.1699316
10	0xbe83192f	-0.2560515
11	0xbecd57c9	-0.40106037
12	0xbe99bfdc	-0.3002919
13	0xbed33a68	-0.41255498
14	0x3ebf4ebc	0.37364757
15	0x3ec6e58d	0.38847008
16	0xbedbb13d	-0.4290866
17	0x3ed2d23a	0.41176015
18	0xbe279f70	-0.16369414
19	0x3eb0b4a0	0.34512806
20	0xbdd1dd0b	-0.10247239
21	0x3e8ce04c	0.27514875
22	0x3dbbcf36	0.09170382
23	0xbe91023e	-0.28322023
24	0xbdf2f3a4	-0.11862877
25	0x3ec97c11	0.39352468
26	0xbd6366a9	-0.055517826
27	0x3e816932	0.2527557
28	0xbe50020f	-0.20313285
29	0xbe0c245a	-0.13685742
30	0xbe13dcda	-0.14439717
31	0x3e8ca0c9	0.2746642
